DNN/TrainedModel.pt (torch, 10967 bytes, 5 tensors)

layers.0.weight f4 [46, 23]
-0.18643014 -0.16444193 -0.030193292 -0.1748745 -0.1373392 0.044129558 0.20996992 -0.0022700417
0.062177133 0.17811309 -0.15478313 0.063870244 0.1728838 0.056619957 0.118617974 -0.03773835
-0.25455794 0.09557921 0.2102549 -0.2794502 -0.18578999 -0.030028714 -0.057426244 0.30402133
0.022516439 -0.013591642 -0.08774536 0.0630384 -0.24050471 0.15542811 0.10916761 0.15228398
-0.2139916 -0.023779837 0.062355556 0.17085153 -0.12590258 -0.23107998 -0.010830562 0.11255631
-0.08000979 -0.10351848 0.03428565 -0.1094235 -0.19794324 -0.1486638 0.16571045 0.1873489
-0.07545095 -0.16848636 0.16525148 0.12618583 0.0839928 0.029136952 0.16822657 0.13781182
0.13570406 0.025755912 0.0766621 -0.14897032 0.106446624 0.20347038 0.07709128 0.18616511
-0.122939564 0.1826853 -0.16700289 -0.18588914 0.15803841 -0.12543288 -0.012413935 0.12600072
-0.113963485 -0.08686726 0.03817538 0.0482472 -0.18357548 -0.15186666 -0.09499633 -0.17856568
0.11721285 0.04747608 -0.16590545 0.17954466 0.17161314 -0.069622084 0.15094614 0.18405741
-0.19582067 0.13368976 0.03214824 0.026537037 -0.05286655 0.07234012 0.1148668 -0.12108031
0.17204416 -0.030866988 -0.033033684 0.08758795 -0.2153535 -0.21415155 0.0755076 0.1652717
-0.03467049 -0.11580699 -0.17554677 -0.11394321 0.019599956 -0.006210256 -0.08432015 0.088935114
-0.026111579 0.02153986 0.09940387 0.06659542 0.12110647 -0.26235238 0.21329786 0.24362625
0.15142769 -0.2711793 -0.13898005 -0.018131413 0.19930185 -0.19137116 0.12473149 0.034518395
-0.19089645 -0.020250434 -0.11187088 0.09494697 -0.12753035 0.008406463 0.19111994 0.103205085
0.1789415 -0.1953845 -0.16660409 0.14153972 0.19546157 0.20919676 -0.06337488 0.14002734
0.059152164 0.08573545 0.15288992 -0.0051307273 -0.12665315 -0.16498952 0.0023121508 -0.01643868
-0.120411485 -0.16138 -0.17471844 0.12792635 -0.022995634 0.20715332 0.02757919 0.16393241
-0.103263766 -0.23987596 0.11307722 -0.06261195 -0.07579631 -0.15877354 0.06418811 0.026839992
0.06590495 -0.16230012 0.04836355 -0.23122516 -0.004963747 -0.034356978 0.024833078 -0.09159846
-0.12227313 0.12150595 0.15237322 -0.08397869 0.005455951 0.07166729 -0.12367404 -0.0121043185
0.06684812 0.1340457 0.27235302 0.05778546 -0.12877452 -0.18494266 0.023148632 -0.285737
0.18479726 -0.026364703 0.043346297 -0.09148767 -0.2197652 -0.024898238 -0.32283944 0.21239127
0.081334464 -0.072258055 -0.08904226 -0.035096284 0.08509017 0.16780998 0.031378906 0.09381234
-0.003938691 0.11963565 0.14238155 -0.1054252 -0.10736154 0.087634794 -0.19223015 0.014200048
-0.22446595 -0.074580126 -0.050358675 0.12847815 -0.06794853 -0.281478 0.008624694 -0.018421534
0.17776386 0.07848162 0.044628974 -0.2531408 0.1792415 0.22628047 -0.12338607 -0.0658378
0.03678581 -0.040475354 -0.17910296 -0.11314525 0.1645634 0.09450869 0.038829744 -0.013690934
0.19798477 -0.012762204 0.038110748 -0.1483819 -0.14871891 -0.12384324 -0.14003992 -0.1346102
-0.16746277 0.10425611 -0.0624824 -0.0042728633 -0.09719547 -0.073677674 -0.09004157 0.0075025707
00000000: 8be7 3ebe 7763 28be ec57 f7bc 4d12 33be
00000010: a6a2 0cbe 32c1 343d 5b02 573e fbc4 14bb
00000020: 73ad 7e3d 4763 363e 787f 1ebe 67ce 823d
00000030: 7308 313e 54ea 673d fbed f23d 8793 1abd
00000040: 6b55 82be 08bf c33d 0f4d 573e 1914 8fbe
00000050: bb3f 3ebe c7fe f5bc c837 6bbd afa8 9b3e
00000060: 6574 b83c 7aaf 5ebc d7b3 b3bd 471a 813d
00000070: de46 76be 8c28 1f3e 4593 df3d 55f0 1b3e
00000080: 9d20 5bbe efcd c2bc 8a68 7f3d b4f3 2e3e
00000090: 9bec 00be 3ba0 6cbe ab72 31bc ec83 e63d
000000a0: 2cdc a3bd 7f01 d4bd 1c6f 0c3d 6e19 e0bd
000000b0: a2b1 4abe 533b 18be 00b0 293e 64d8 3f3e
000000c0: 0786 9abd b087 2cbe af37 293e dc36 013e
000000d0: 6b04 ac3d 9eb0 ee3c 9643 2c3e 8b1e 0d3e
000000e0: 01f6 0a3e 10fe d23c 0501 9d3d ad8b 18be
000000f0: b000 da3d 8a5a 503e 08e2 9d3d 11a2 3e3e
00000100: bdc7 fbbd db11 3b3e ce02 2bbe b959 3ebe
00000110: d2d4 213e 7a71 00be d163 4bbc 5506 013e
00000120: b065 e9bd 76e7 b1bd ca5d 1c3d db9e 453d
00000130: 36fb 3bbe ef82 1bbe 708d c2bd ecd9 36be
00000140: 4a0d f03d 4776 423d 1ee3 29be 8eda 373e
00000150: 5bbb 2f3e 0696 8ebd a091 1a3e 8c79 3c3e
00000160: 3785 48be f8e5 083e dfad 033d 3364 d93c
00000170: 988a 58bd 0f27 943d 493f eb3d f4f8 f7bd
00000180: 582c 303e c4dc fcbc 544e 07bd 5061 b33d
00000190: a185 5cbe 8b4a 5bbe bba3 9a3d fc3c 293e
000001a0: a502 0ebd 372c edbd 88c2 33be 0f5b e9bd
000001b0: 1690 a03c 677f cbbb 0bb0 acbd 9d23 b63d
000001c0: f3e7 d5bc 5c74 b03c 4294 cb3d 2e63 883d
000001d0: ab06 f83d 0d53 86be c16a 5a3e 2979 793e
000001e0: dc0f 1b3e 03d8 8abe c950 0ebe 5488 94bc
000001f0: c915 4c3e cdf6 43be 3973 ff3d 2963 0d3d
00000200: 5c7a 43be 3de4 a5bc 8f1c e5bd 8f73 c23d
00000210: 5197 02be 43bb 093c f2b4 433e 305d d33d
00000220: 713c 373e e012 48be 439a 2abe caef 103e
00000230: 1427 483e ad37 563e b0ca 81bd 5463 0f3e
00000240: 8a49 723d 1196 af3d 2d8f 1c3e a91f a8bb
00000250: 5db1 01be 03f3 28be 7487 173b 69aa 86bc
00000260: 4c9a f6bd cc40 25be 64e9 32be 20ff 023e
00000270: 5761 bcbc 0020 543e c1ed e13c e6dd 273e
00000280: f47b d3bd 0ba2 75be 0895 e73d b23a 80bd
00000290: 193b 9bbd 8895 22be 0e75 833d 8bdf db3c
000002a0: 2df9 863d 0132 26be dc18 463d 4ac6 6cbe
000002b0: eea6 a2bb e7b9 0cbd bd6e cb3c f997 bbbd
000002c0: 566a fabd 1dd8 f83d ba07 1c3e 05fd abbd
000002d0: d6c7 b23b 4dc6 923d d148 fdbd 3151 46bc
000002e0: abe7 883d 4743 093e db71 8b3e 72b0 6c3d
000002f0: 78dd 03be 9c61 3dbe 33a2 bd3c 1f4c 92be
00000300: 7e3b 3d3e cafa d7bc e38b 313d e35d bbbd
00000310: 210a 61be 64f7 cbbc 364b a5be 197d 593e
00000320: af92 a63d 08fc 93bd ca5b b6bd 1fc1 0fbd
00000330: c143 ae3d 61d6 2b3e 2b87 003d af20 c03d
00000340: 2310 81bb 8903 f53d 78cc 113e 2be9 d7bd
00000350: 5ee0 dbbd df79 b33d fbd7 44be 51a7 683c
00000360: 67da 65be 77bd 98bd e644 4ebd c78f 033e
00000370: 9928 8bbd e21d 90be 974e 0d3c c2e8 96bc
00000380: bb07 363e f9ba a03d dfcc 363d ac9b 81be
00000390: 158b 373e 11b6 673e d6b1 fcbd f8d5 86bd
000003a0: b8ac 163d 7cc9 25bd c466 37be b2b8 e7bd
000003b0: 4f83 283e c68d c13d f00b 1f3d f04f 60bc
000003c0: 85bc 4a3e 9018 51bc 041a 1c3d 6df1 17be
000003d0: c549 18be 86a1 fdbd a066 0fbe 42d7 09be
000003e0: 5c7b 2bbe 3a84 d53d 8ced 7fbd 6003 8cbb
000003f0: 6b0e c7bd 52e4 96bd b767 b8bd 20d8 f53b

layers.0.bias f4 [46]
-0.04132184 -0.03722582 -0.05454253 0.18167053 0.20206155 -0.012018338 0.09181578 0.19485101
-0.12338306 -0.049470223 -0.01147072 -0.013470426 0.03897075 0.073722914 -0.15288751 -0.09539186
0.25623614 0.14270006 -0.22608295 0.17419443 0.2389985 0.016294984 0.15496537 -0.043466467
-0.16531381 0.14449415 0.15571001 0.050190117 -0.18416005 0.22713803 -0.05538189 0.08404239
-0.077432096 -0.0734764 -0.05084157 -0.044471473 0.113230504 0.07204072 -0.15819906 -0.012392757
-0.19761084 0.078329265 -0.18178968 0.10766923 0.030373089 0.039470814
00000000: 1741 29bd 1a7a 18bd fd67 5fbd d707 3a3e
00000010: 39e9 4e3e 90e8 44bc e909 bc3d 0687 473e
00000020: 42b0 fcbd 4aa1 4abd b0ef 3bbc 10b3 5cbc
00000030: cb9f 1f3d 0afc 963d 8b8e 1cbe cf5c c3bd
00000040: 6231 833e f71f 123e 4a82 67be 0660 323e
00000050: 06bc 743e 0f7d 853c 3eaf 1e3e e509 32bd
00000060: 0648 29be 46f6 133e 7272 1f3e 2794 4d3d
00000070: 7494 3cbe df96 683e 1fd8 62bd 6b1e ac3d
00000080: b894 9ebd cb7a 96bd 403f 50bd b827 36bd
00000090: 65e5 e73d 168a 933d effe 21be fe0a 4bbc
000000a0: 7f5a 4abe 186b a03d 1327 3abe af81 dc3d
000000b0: fcd0 f83c 26ac 213d

layers.2.weight f4 [23, 46]
-0.06523946 0.1708825 0.1452831 0.16818649 0.06252468 0.18498076 -0.090119615 0.00038336363
0.029559923 0.12612769 0.042301223 0.10030119 0.06544682 -0.044269808 0.14499846 0.071693875
0.090162635 0.06720597 0.0035419697 0.0032878846 0.08093871 -0.048484016 0.038183652 0.050474197
0.12094265 0.14629139 0.19866817 0.06152664 0.14214598 0.15097609 0.08570542 -0.023170002
-0.0077730194 -0.014536018 -0.024381332 0.04500683 0.05368467 0.032004204 -0.023506 0.008749325
-0.12855282 -9.468269e-05 0.09138869 0.020680746 0.27888933 -0.039849337 0.122410126 0.049121305
0.05373648 -0.14340308 -0.14258444 0.11910077 -0.153557 0.08810196 0.036089603 0.087343335
-0.13805668 -0.087850004 0.032144513 0.11959985 0.07206693 -0.09409598 -0.14596567 -0.013212632
0.09459448 0.09805966 -0.08054356 0.08874924 0.08039049 0.031965762 0.14151743 0.031905938
0.10982496 0.0761469 -0.12000253 0.052164614 0.02174902 0.001762421 -0.14787933 0.05382888
-0.048415475 -0.035856146 -0.034084983 -0.115806796 -0.14047931 -0.025200646 0.005944983 -0.11690007
-0.13128345 -0.0046301824 0.077865124 -0.059243795 -0.0019823224 0.22191657 0.06817638 0.13008957
0.0872595 0.112833 0.10515154 0.16171516 0.1183842 -0.05281491 0.06505364 0.055208012
0.0955022 -0.018017692 -0.017727308 0.116976 -0.054514144 0.13547856 -0.056778718 -0.0137386955
0.14600424 0.0045636697 0.053795658 0.11276418 -0.057949573 -0.021733506 0.09272173 -0.09801242
-0.0947159 -0.094395734 0.14090551 0.2542945 -0.0005604434 -0.036266033 -0.038854606 0.036872346
0.09768921 -0.040503748 0.047492456 0.044842888 -0.0999434 -0.09240134 -0.09169462 -0.06378552
0.22656836 -0.06785973 0.0847587 0.10725002 0.09731013 -0.065502636 -0.028150769 0.0595944
0.07498779 -0.08488719 0.16114917 0.09500802 -0.12775351 0.09949747 0.065616496 -0.0038996406
-0.05691451 0.12116626 0.17496303 0.13019733 -0.019618962 0.03981593 0.13809748 0.11670387
0.071403064 -0.11992502 0.12438956 0.1612844 0.3714856 -0.047608953 -0.10430999 0.14731698
-0.047353096 0.052769784 -0.15047666 -0.03705749 -0.045024857 0.15429845 0.046518356 0.17513226
0.18957385 0.06537416 -0.14460453 -0.06988356 0.09826028 0.06804136 0.1403141 0.070901416
0.03459859 0.042695254 -0.14614357 -0.14127053 -0.07459418 -0.024109632 0.0013322234 0.029116988
-0.0045977235 -0.123935014 -0.12041807 0.13730991 -0.060743265 -0.090274975 0.0036246628 -0.034340166
-0.14006618 0.074428484 0.09876625 0.031842917 -0.0924094 -0.009324402 -0.113753036 0.12888524
0.14077887 -0.04260681 -0.0424176 0.024843246 -0.023358032 -0.05564855 -0.09989186 -0.13717799
-0.04970944 -0.035122477 0.12561667 0.135088 0.118492246 0.14212546 -0.06886332 -0.065701246
0.04757078 -0.13461544 0.019380659 0.07840589 0.095934734 0.10778606 0.10833115 0.18706384
0.057011 -0.06906483 -0.037186433 0.14970826 -0.048382234 -0.0007864414 0.012296303 -0.05576565
0.027544409 0.025347278 0.09374721 0.2044638 -0.12751225 0.045794718 0.095201075 -0.094162524
-0.09122367 0.12703092 0.14135712 -0.10848858 0.10996584 -0.028513856 -0.034997188 0.15005822
00000000: 449c 85bd d2fb 2e3e 18c5 143e 1439 2c3e
00000010: f00c 803d 996b 3d3e a290 b8bd 32fe c839
00000020: a727 f23c 9e27 013e 0c44 2d3d b66a cd3d
00000030: fb08 863d 4254 35bd 7a7a 143e 3dd4 923d
00000040: 30a7 b83d 49a3 893d 6420 683b 8d79 573b
00000050: 32c3 a53d 2d97 46bd 7666 1c3d 08be 4e3d
00000060: c8b0 f73d 69cd 153e ab6f 4b3e 5c03 7c3d
00000070: b78e 113e 7a99 1a3e 5386 af3d 04cf bdbc
00000080: d0b4 febb 7a28 6ebc 5cbb c7bc 1559 383d
00000090: 75e4 5b3d d716 033d a88f c0bc 5459 0f3c
000000a0: 5aa3 03be 6290 c6b8 fe29 bb3d ab6a a93c
000000b0: 95ca 8e3e 0f39 23bd 29b2 fa3d 6c33 493d
000000c0: c91a 5c3d 42d8 12be a801 12be 1beb f33d
000000d0: 0c3e 1dbe cd6e b43d b1d2 133d 10e1 b23d
000000e0: bb5e 0dbe b4ea b3bd f7a9 033d c4f0 f43d
000000f0: d497 933d 65b5 c0bd 0678 15be cc79 58bc
00000100: c0ba c13d 81d3 c83d 06f4 a4bd 29c2 b53d
00000110: c5a3 a43d 88ee 023d f2e9 103e cdaf 023d
00000120: e9eb e03d e8f2 9b3d e3c3 f5bd 90aa 553d
00000130: 002b b23c 0901 e73a ae6d 17be ac7b 5c3d
00000140: 4e4f 46bd e5dd 12bd b29c 0bbd 1d2c edbd
00000150: cfd9 0fbe 9671 cebc 22ce c23b 4e69 efbd
00000160: 2b6f 06be c9b8 97bb c077 9f3d 9fa9 72bd
00000170: dae9 01bb 193e 633e 0fa0 8b3d 3336 053e
00000180: 1cb5 b23d fd14 e73d b159 d73d a998 253e
00000190: 6a73 f23d 7254 58bd d83a 853d cc21 623d
000001a0: a896 c33d d799 93bc dc38 91bc 1d91 ef3d
000001b0: 394a 5fbd e4ba 0a3e cd90 68bd 4418 61bc
000001c0: 2382 153e d68a 953b d658 5c3d e8f0 e63d
000001d0: 885c 6dbd 770a b2bc e4e4 bd3d bcba c8bd
000001e0: 69fa c1bd 8d52 c1bd 8949 103e e432 823e
000001f0: b8ea 12ba b18b 14bd 0226 1fbd 7507 173d
00000200: 4811 c83d 42e7 25bd 7387 423d 2dad 373d
00000210: 20af ccbd ea3c bdbd 64ca bbbd fca1 82bd
00000220: 8901 683e 0bfa 8abd f895 ad3d e6a5 db3d
00000230: 894a c73d 3f26 86bd 719c e6bc 4219 743d
00000240: 3393 993d 56d9 adbd 4a04 253e 9193 c23d
00000250: d1d1 02be 54c5 cb3d f161 863d 1d91 7fbb
00000260: 301f 69bd 0426 f83d 8229 333e 7352 053e
00000270: f2b7 a0bc 0716 233d 6d69 0d3e 7002 ef3d
00000280: c53b 923d 409b f5bd f4bf fe3d bd27 253e
00000290: 5c33 be3e 9b01 43bd 7aa0 d5bd 43da 163e
000002a0: 52f5 41bd 2125 583d 8e16 1abe 98c9 17bd
000002b0: fc6b 38bd 6a00 1e3e 088a 3e3d df55 333e
000002c0: a61f 423e e3e2 853d 3613 14be 1d1f 8fbd
000002d0: b03c c93d 4559 8b3d 80ae 0f3e c334 913d
000002e0: 40b7 0d3d 38e1 2e3d a9a6 15be 39a9 10be
000002f0: d5c4 98bd 9081 c5bc 009e ae3a c086 ee3c
00000300: 80a8 96bb a4d1 fdbd c09d f6bd f89a 0c3e
00000310: eecd 78bd 16e2 b8bd c08b 6d3b 46a8 0cbd
00000320: 826d 0fbe f66d 983d f645 ca3d b86d 023d
00000330: 2441 bdbd 60c5 18bc 5af7 e8bd 7efa 033e
00000340: 5628 103e 7a84 2ebd 14be 2dbd 1084 cb3c
00000350: 5859 bfbc bcef 63bd 1a94 ccbd 6378 0cbe
00000360: 209c 4bbd 96dc 0fbd a8a1 003e 8254 0a3e
00000370: 10ac f23d 5689 113e 3608 8dbd 608e 86bd
00000380: 94d9 423d a1d8 09be 30c4 9e3c 4493 a03d
00000390: 6e79 c43d f0be dc3d b9dc dd3d aa8d 3f3e
000003a0: 5e84 693d dd71 8dbd cd50 18bd 1f4d 193e
000003b0: 732c 46bd 3029 4eba 6f76 493c 866a 64bd
000003c0: d0a4 e13c 18a5 cf3c 8afe bf3d f55e 513e
000003d0: 9292 02be 3e93 3b3d c8f8 c23d 48d8 c0bd
000003e0: 7ad3 babd 6514 023e ecbf 103e 432f debd
000003f0: c535 e13d e495 e9bc 3659 0fbd dda8 193e

layers.2.bias f4 [23]
0.15844151 -0.083217606 0.19800957 0.057736058 -0.04222025 0.0048243334 0.2210564 0.17891969
0.07204048 -0.15377963 -0.17825595 0.21916036 0.12958336 -0.10435049 -0.01570575 0.2622928
0.08191683 -0.22100459 -0.16354677 -0.019808307 -0.032301545 0.08847498 4.7836176e-05
00000000: 7e3e 223e fe6d aabd 05c3 4a3e a57c 6c3d
00000010: 24ef 2cbd 7115 9e3b 9c5c 623e b936 373e
00000020: f689 933d 6878 1dbe ba88 36be 936b 603e
00000030: 80b1 043e b6b5 d5bd 58a9 80bc 3e4b 863e
00000040: 03c4 a73d 074f 62be ce78 27be 0845 a2bc
00000050: a04e 04bd 5f32 b53d b4a3 4838

layers.4.weight f4 [1, 23]
0.24107634 -0.031666566 0.20580202 0.19975433 0.107718036 0.099707805 0.05733791 0.13902386
-0.14492 -0.13578849 -0.10814192 0.05505558 0.089445 -0.19068326 0.13035114 0.10998154
0.048341483 -0.13218646 -0.022767939 -0.11849527 0.08817403 -0.11294548 -0.054192394
00000000: b7dc 763e cdb4 01bd c4bd 523e 668c 4c3e
00000010: 469b dc3d 9b33 cc3d 28db 6a3d 455c 0e3e
00000020: e965 14be 230c 0bbe 8379 ddbd f681 613d
00000030: f12e b73d 7942 43be c57a 053e 003e e13d
00000040: b801 463d e35b 07be d483 babc a6ad f2bd
00000050: 9694 b43d f64f e7bd d8f8 5dbd
