DNN/TrainedModel.pt (torch, 16535 bytes, 5 tensors)

layers.0.weight f4 [64, 23]
0	0xbe154f28	-0.14580977
1	0xbe10a6a9	-0.14126076
2	0xbe00204a	-0.12512317
3	0x3e3010d1	0.17193915
4	0xbe4d71b0	-0.200629
5	0x3e195065	0.14972074
6	0x3cf63d30	0.030058473
7	0xbdc57b24	-0.09642628
8	0x3c4df150	0.01256974
9	0x3d8cb2aa	0.06870015
10	0xbdf4d84a	-0.11955316
11	0x3e4f81d3	0.20264368
12	0xbe46a453	-0.19398622
13	0xbd8f4390	-0.069953084
14	0xbe52ad6d	-0.20573969
15	0xbda1a8d8	-0.078935325
16	0xbe524be6	-0.20536765
17	0xbe48afad	-0.19598265
18	0x3b8cca20	0.004296556
19	0xbb4ca0c0	-0.0031223744
20	0xbe132308	-0.14368832
21	0x3d1e3edc	0.038634166
22	0xbd7a28e8	-0.061074167
23	0xbe28c0d5	-0.1647981
24	0x3d700e92	0.058607645
25	0xbe2cf567	-0.16890489
26	0x3d99966a	0.07499392
27	0x3e5e4c66	0.21708831
28	0xbdb923b6	-0.090400144
29	0xbdd919b6	-0.10600607
30	0x3dcc5dc7	0.09978824
31	0xbe039f22	-0.12853673
32	0x3e00b430	0.12568736
33	0x3e2f0af5	0.17094024
34	0x3de81b54	0.113333374
35	0x3cc89858	0.024486706
36	0xbd809ef0	-0.06280315
37	0x3d899d80	0.06719494
38	0xbdf2814b	-0.11841067
39	0x3e2c8cb0	0.16850543
40	0x3e09bde9	0.13451351
41	0xbd5b4fe4	-0.053542987
42	0xbe756308	-0.23963559
43	0xbe397209	-0.18109907
44	0x3e29b572	0.16573122
45	0xbd71e597	-0.059056845
46	0xbe3c7f3f	-0.18407916
47	0xbd01234b	-0.0315278
48	0x3dea5609	0.11442191
49	0xbe147f4c	-0.14501685
50	0xbdda13ae	-0.10648285
51	0xbe56624a	-0.20935932
52	0x3d601c32	0.05471439
53	0x3d8b692b	0.068071686
54	0x3e3d5b04	0.18491751
55	0x3e14c9d9	0.14530124
56	0xbda29f25	-0.07940511
57	0x3df11f01	0.11773492
58	0x3e2bf85c	0.1679396
59	0x3dfb5ffb	0.12274166
60	0x3d7ece28	0.062208325
61	0x3e265ffc	0.16247553
62	0xbd135aff	-0.035975453
63	0x3d0cd303	0.034380924
64	0x3d7d46b4	0.061835006
65	0x3d1a971f	0.037741777
66	0xbdc3cd24	-0.09560612
67	0x3d04a254	0.03238137
68	0x3e30452d	0.17213888
69	0xbe00c8cc	-0.12576598
70	0x3d7dd03d	0.06196617
71	0x3e23ef9d	0.16009374
72	0x3c110640	0.008851588
73	0x3e02e0db	0.12781088
74	0xbe7aa177	-0.24475656
75	0x3dfa7d7b	0.12230965
76	0x3e33e0d8	0.1756624
77	0x3e3d49e3	0.18485217
78	0xbe215e9f	-0.15758751
79	0x3e001632	0.12508467
80	0xbe413629	-0.18868317
81	0xbe40de00	-0.18834686
82	0x3e4baad8	0.1988939
83	0x3e0ea6f1	0.1393087
84	0xbde78715	-0.11305062
85	0x3dd6f0b2	0.10495128
86	0xbdbb5f1f	-0.09149002
87	0x3cb0635c	0.021531753
88	0xbe0fe0f7	-0.14050661
89	0xbe86c141	-0.26319316
90	0x3d686cf2	0.056744523
91	0xbe123c3e	-0.14280793
92	0xbe07a818	-0.13247716
93	0x3e376465	0.17909391
94	0x3d8767fb	0.066116296
95	0xbca52b65	-0.020162294
96	0x3d8ce44c	0.06879482
97	0x3e0d0ab8	0.1377362
98	0xbdcaaa8a	-0.09895809
99	0xbdd90380	-0.10596371
100	0xbdf7bd61	-0.12096668
101	0x3dce11e2	0.100620046
102	0xbe0dcdd8	-0.13848054
103	0xbd98171a	-0.07426281
104	0x3e0d812c	0.13818806
105	0x3d72c858	0.059273094
106	0xbe0dc648	-0.1384517
107	0x3d8232a5	0.06357316
108	0x3daaa527	0.083322816
109	0x3e5aeb3c	0.21378797
110	0x3d104106	0.03521826
111	0x3d138042	0.036010988
112	0xbdd739f1	-0.10509098
113	0x3e648544	0.22316462
114	0x3e197c8b	0.14988916
115	0x3e5fdb0c	0.21860904
116	0xbe1f8b4d	-0.15580483
117	0xbd8a5104	-0.06753734
118	0xbac2ffe0	-0.0014877282
119	0x3d6ae491	0.057346884
120	0x3d5d7b69	0.05407277
121	0x3db45480	0.088051796
122	0xbde526b1	-0.111890204
123	0xbdc81ee3	-0.09771516
124	0x3e27de86	0.1639348
125	0xbe681465	-0.2266403
126	0xbd80ef8c	-0.0629569
127	0xbd717ba9	-0.058955822
128	0x3d1e93bf	0.03871512
129	0x3db35e3c	0.08758208
130	0xbe3d9462	-0.18513635
131	0x3e238b2f	0.15971063
132	0xbe69c7e2	-0.22830155
133	0x3c971f7e	0.018447634
134	0xbe261ee8	-0.16222727
135	0x3d39b100	0.045334816
136	0x3e3ea508	0.18617642
137	0xbd8e7cd2	-0.06957401
138	0x3cd6d62e	0.026225176
139	0x3c912623	0.01771838
140	0xbd985857	-0.074387245
141	0xbe2cb288	-0.1686498
142	0xbdc6e219	-0.097110935
143	0x3def040e	0.11670695
144	0x3e61750b	0.22017305
145	0xbcce8edd	-0.025214607
146	0xbdf77ba5	-0.1208413
147	0xbe325794	-0.17416221
148	0xbe2fbce2	-0.17161897
149	0x3cbf007c	0.02331566
150	0xbd853507	-0.06504255
151	0x3e46234d	0.19349404
152	0x3e0d8009	0.13818373
153	0xbddb8d24	-0.1072028
154	0x3d46b912	0.04851634
155	0x3e298b96	0.16557154
156	0x3ccbbd51	0.024870547
157	0x3d2eb18b	0.042649787
158	0x3e467b47	0.19382964
159	0x3da745de	0.08167623
160	0x3dcdb753	0.10044732
161	0xbd6e903d	-0.058243025
162	0xbe27cd13	-0.16386823
163	0xbdf3f4f3	-0.11911955
164	0xba59ac7e	-0.00083035964
165	0x3d711e74	0.058866933
166	0x3e215151	0.15753676
167	0xbdae16d7	-0.0850045
168	0xbe196ce6	-0.14982948
169	0x3e7d689b	0.24746935
170	0x3d16e1c9	0.03683642
171	0x3ce95d4a	0.028486867
172	0x3d9e478b	0.077284895
173	0x3e53461e	0.20632216
174	0x3d7592f5	0.059954602
175	0xbe2a300c	-0.16619891
176	0xbe0b248e	-0.13588163
177	0xbddfb995	-0.10924069
178	0x3e3844b0	0.17994952
179	0x3e1358b9	0.14389314
180	0xbd781d12	-0.0605746
181	0xbe37de63	-0.17955928
182	0xbd8f0bc2	-0.069846645
183	0xbe06a637	-0.13149343
184	0x3c15a430	0.009133384
185	0xbdb95dbc	-0.090510815
186	0xbe4c4648	-0.19948685
187	0xbe4efe3b	-0.20214169
188	0xbddf4c65	-0.10903243
189	0x3e166b15	0.14689286
190	0xbd539628	-0.051656872
191	0xbdfa0657	-0.122082405
192	0x3e44b525	0.19209726
193	0xbe26ad8a	-0.16277137
194	0x3a8b2600	0.0010616183
195	0xbd92c942	-0.07167293
196	0xbc475df0	-0.012168393
197	0x3db4b7e6	0.08824138
198	0xbe3ba1e8	-0.18323481
199	0xbba32240	-0.004978448
200	0xbe36c834	-0.17849809
201	0x3d114d90	0.03547436
202	0xbe55226c	-0.20813912
203	0xbc4e1fa0	-0.012580782
204	0x3e135535	0.14387973
205	0xbdd6c279	-0.104863115
206	0xbdd27f1c	-0.102781504
207	0x3e2591d0	0.16168904
208	0xbde4ed1e	-0.11178039
209	0x3db4ad64	0.08822134
210	0xbdbdfcd0	-0.09276736
211	0xbc988373	-0.018617367
212	0x3da67426	0.08127622
213	0xbe25c823	-0.16189627
214	0x3b4a0001	0.0030822756
215	0xbdb56e19	-0.0885889
216	0xbe272757	-0.163236
217	0xbe3cfc2b	-0.1845557
218	0x3d824163	0.06360128
219	0xbc110f5a	-0.008853758
220	0x3cab4a32	0.020909403
221	0x3e4c80db	0.1997103
222	0xbc20168d	-0.0097710015
223	0xbd6ce16c	-0.057832167
224	0x3e502803	0.20327763
225	0x3e6bc7a6	0.23025379
226	0x3e3012d4	0.17194682
227	0x3d942bab	0.072348915
228	0x3def1930	0.11674726
229	0xbd560a92	-0.052256174
230	0x3e0fb967	0.14035569
231	0x3e1ee28b	0.15516107
232	0x3c1385a5	0.009004031
233	0xbe0363a3	-0.12830977
234	0x3e07b571	0.13252808
235	0x3e147645	0.14498241
236	0x3dd55006	0.10415654
237	0x3e09955e	0.13435885
238	0xbdaa5753	-0.08317437
239	0x3cdd20d7	0.026993198
240	0xbe26422f	-0.16236185
241	0x3d8392f0	0.064245105
242	0xbcf2b4c2	-0.029627208
243	0x3e23c692	0.15993717
244	0xbe0d6748	-0.1380893
245	0xbbc63c20	-0.006049648
246	0x3e2af327	0.16694318
247	0x3e6d88e0	0.23196745
248	0xbe2eec1d	-0.17082258
249	0x3c85439b	0.016267588
250	0x3db78bf7	0.08962243
251	0x3dc3dae9	0.09563238
252	0xbde81e5b	-0.11333915
253	0xbe06ce57	-0.1316465
254	0x3e3a020b	0.18164842
255	0x3ca4d3cb	0.020120522

layers.0.bias f4 [64]
0	0x3da9cd26	0.08291082
1	0xbbba99b6	-0.0056945933
2	0xbd6deee5	-0.058089156
3	0xbe28b78c	-0.16476268
4	0x3e1141a8	0.14185202
5	0x3dde8b8d	0.10866461
6	0x3cfa69ab	0.030567965
7	0x3e12c510	0.14332986
8	0x3dc620c6	0.0967422
9	0xbde970f1	-0.11398495
10	0x3da8db5d	0.08244965
11	0xbe12de5d	-0.14342637
12	0xbdee16ce	-0.116254434
13	0x3e0350a7	0.12823735
14	0x3e0bb9aa	0.13645044
15	0x3d99f51b	0.07517453
16	0x3e325f37	0.17419134
17	0xbe10ff8d	-0.14159985
18	0xbdfc0a80	-0.1230669
19	0xbe2cf6bb	-0.16890995
20	0x3e22a8bd	0.15884681
21	0x3e287861	0.16452171
22	0x3d06cfe9	0.032913122
23	0x3d3a4eaf	0.045485195
24	0x3e103237	0.14081655
25	0x3da81314	0.08206764
26	0x3e4fca8c	0.20292109
27	0xbc70641f	-0.014672308
28	0x3e030e73	0.1279848
29	0x3e00de3d	0.12584777
30	0x3de4b29c	0.111668795
31	0xbda24f1e	-0.07925247
32	0xbda83bcf	-0.082145326
33	0x3e249a02	0.16074374
34	0x3e619301	0.22028734
35	0x3c2d8fe0	0.0105933845
36	0xbd20c140	-0.039246798
37	0x3e58e414	0.21180755
38	0x3dc39dea	0.09551604
39	0x3d824346	0.06360488
40	0xbe2aef86	-0.16692933
41	0x3e4a1f83	0.19738583
42	0xbd185652	-0.037191696
43	0x3d9be06d	0.07611165
44	0xbe0b7ca7	-0.1362177
45	0x3e3c2341	0.18372823
46	0xb8dc3e36	-0.00010502005
47	0xbdfc9a24	-0.123340875
48	0x3e04e5aa	0.12978235
49	0xbdd9d918	-0.106371105
50	0xbd8e2fea	-0.06942733
51	0x3e0bf7b8	0.13668716
52	0xbca5d556	-0.020243328
53	0x3e59bc3c	0.21263212
54	0x3dfddd3e	0.12395714
55	0xbdb8bae9	-0.09020025
56	0x3e2432ed	0.16035052
57	0xbdf38892	-0.11891283
58	0x3d698854	0.05701478
59	0xbe1aca71	-0.15116288
60	0x3e1c7d25	0.15282114
61	0x3caa9da9	0.020827131
62	0x3d9ca419	0.07648487
63	0x3e1af58a	0.15132728

layers.2.weight f4 [32, 64]
0	0x3defe41c	0.1171343
1	0x3c5d324a	0.013500759
2	0xbdae6ef9	-0.0851726
3	0x3d2681e4	0.040651217
4	0x3dea03e5	0.11426524
5	0x3e94eb4b	0.29085764
6	0xbda82e9d	-0.08212016
7	0x3e8163bd	0.25271407
8	0xbd1c2a58	-0.03812632
9	0xbd3a7526	-0.045521878
10	0x3de8479c	0.113417834
11	0x3c67ed51	0.014155702
12	0x3e1a36aa	0.15059915
13	0xbd18e5dc	-0.037328586
14	0x3daf353d	0.08555076
15	0x3d4a52d7	0.04939541
16	0x3d92839f	0.07154011
17	0x3e247be5	0.16062887
18	0x3df5541a	0.11978932
19	0xbd30963c	-0.043112025
20	0x3e887cd9	0.2665775
21	0x3e89af06	0.26891345
22	0x3cb20778	0.021732077
23	0x3d872496	0.06598775
24	0x3cd36d87	0.025809063
25	0x3d1082aa	0.03528086
26	0x3d5af91a	0.053460218
27	0xbbcaa5dc	-0.0061843228
28	0x3d2d1242	0.04225374
29	0xbdbe2b09	-0.09285552
30	0xbda3eee9	-0.08004553
31	0x3d940c29	0.07228882
32	0xbda34e2e	-0.07973896
33	0x3d79a33e	0.060946696
34	0x3d3f3f42	0.046691187
35	0xbdc5dfb4	-0.096618086
36	0xba0562c2	-0.00050882634
37	0x3d409f94	0.047027186
38	0x3dc8e3da	0.09809084
39	0x3db9a019	0.09063739
40	0xbd04def3	-0.032439183
41	0xbca0a3ed	-0.019609416
42	0xbdc17152	-0.09445442
43	0x3be0bfbe	0.006858795
44	0xbd70de30	-0.058805645
45	0xbcff923b	-0.031197658
46	0x3cda87f8	0.026676163
47	0x3c01a853	0.007913667
48	0xb9d6adbc	-0.00040946703
49	0x3dc9e2f4	0.09857741
50	0x3ccd30d9	0.025047706
51	0x3d2a57b4	0.041587546
52	0x3b263d16	0.0025366
53	0x3ba44f29	0.0050143194
54	0xbdfc05b8	-0.12305778
55	0xbcc57d95	-0.024107734
56	0x3cbe54dc	0.023233823
57	0xbdcb1e0e	-0.09917842
58	0x3b7a1456	0.0038159094
59	0x3dd59770	0.10429275
60	0x3c36fc40	0.0111685395
61	0x3d033ea4	0.03204216
62	0x3d87811e	0.06616424
63	0x3e58cb6a	0.21171346
64	0x3a673300	0.000881955
65	0x3df369ce	0.11885415
66	0xbd5a81c0	-0.053346395
67	0x3b8c8840	0.004288703
68	0x3d3de3ac	0.046359703
69	0xbca399d8	-0.01997082
70	0x3d1a11d0	0.037614644
71	0xbddeb02c	-0.10873446
72	0x3c91cdd0	0.017798334
73	0x3c65f420	0.014035255
74	0x3bc3aa20	0.005971208
75	0xbd7241e0	-0.059144855
76	0xbddcb702	-0.107770935
77	0x3d8f1d0c	0.06987962
78	0x3dfc65d6	0.12324111
79	0xbdd19060	-0.102326155
80	0x3c0e62f0	0.008690581
81	0x3dcced54	0.10006204
82	0x3def83cc	0.1169506
83	0xbc85a3c0	-0.016313434
84	0x3d9b6bc6	0.075889155
85	0xbd079f84	-0.03311111
86	0x3d59e8b8	0.053200454
87	0xbdb69104	-0.08914378
88	0x3d9dc4b2	0.07703532
89	0xbded370c	-0.11582765
90	0xbdbe92ce	-0.093053445
91	0xbddffb7e	-0.1093664
92	0x3d2f2210	0.042757094
93	0x3b8bd4a0	0.0042672902
94	0x3df5f7aa	0.12010129
95	0x3d7b9168	0.061417967
96	0xbde4357c	-0.11143014
97	0xbc9f4370	-0.019441336
98	0xbc88b970	-0.016689986
99	0x3d986298	0.0744068
100	0x3d03df5c	0.032195434
101	0xbde36d86	-0.11104874
102	0xbcf25268	-0.02958031
103	0xbd816a36	-0.06319086
104	0xbd57cd58	-0.052686065
105	0x3d46ebc4	0.048564687
106	0xbdeaab2c	-0.1145843
107	0x3dfa3cea	0.1221865
108	0xbd69f6a8	-0.057119995
109	0xbca0b8d8	-0.01961939
110	0xbd35e730	-0.04440993
111	0xbc087750	-0.008329228
112	0xbdbf3fc0	-0.09338331
113	0xbd95ae8c	-0.07308683
114	0xbd314b94	-0.043284968
115	0xbde18f40	-0.11013651
116	0x3d7c87e4	0.061653033
117	0xbdb48c86	-0.08815865
118	0xbddaa0d6	-0.10675208
119	0xbd4a7dfc	-0.049436554
120	0xbc8e3358	-0.017358467
121	0x3da1eb42	0.079062
122	0xbde67528	-0.112528145
123	0xbd2d5388	-0.04231599
124	0xbdd38f36	-0.1033005
125	0x3ddbdc3c	0.10735366
126	0x3d064eb8	0.032789916
127	0x3d58e674	0.052954152
128	0xbd757ce0	-0.059933543
129	0x3d2babde	0.041911952
130	0x3d2fdd4b	0.04293565
131	0x3e514987	0.20438205
132	0xbc87dcd3	-0.01658479
133	0x3de9feda	0.11425562
134	0xbd40b0f9	-0.047043774
135	0x3dc9c9a4	0.09852913
136	0xbd303cec	-0.04302685
137	0x3d43f051	0.047836605
138	0xbcae49e9	-0.021275477
139	0x3da0b699	0.07847328
140	0x3e270425	0.16310175
141	0xbda638ae	-0.081162795
142	0x3d9cfbbc	0.07665202
143	0x3d50dc69	0.05099145
144	0xbbae2a06	-0.005315068
145	0x3dcb1d6a	0.0991772
146	0x3e4db5fd	0.20088954
147	0xbc662d50	-0.014048889
148	0x3dfe5c88	0.12419993
149	0x3e45e456	0.19325384
150	0x3ca4f9fd	0.020138735
151	0x3e22d7c5	0.15902622
152	0x3e41f0b6	0.1893948
153	0x3dc72394	0.09723583
154	0x3d2eb72c	0.042655155
155	0x3e2445ae	0.16042206
156	0xbc305953	-0.010763484
157	0x3d8f3508	0.06992537
158	0x3dff4acf	0.124654405
159	0xbc668604	-0.014070038
160	0x3d593ceb	0.05303661
161	0x3ceb2264	0.028702922
162	0x3d3443e4	0.044010058
163	0x3cf99d36	0.030470472
164	0x3cc32448	0.023821011
165	0xbd29075e	-0.04126679
166	0x3d899749	0.067183085
167	0xbdb5c7ad	-0.08875976
168	0xbdb65be8	-0.089042485
169	0x3d806977	0.06270116
170	0xbd9cb0b8	-0.07650894
171	0x3e1931a0	0.14960337
172	0xbd21b57e	-0.039479725
173	0xbd818b4b	-0.06325396
174	0x3df738ab	0.120713554
175	0x3e001452	0.12507752
176	0x3e0e29d4	0.13883144
177	0xbd9dd296	-0.07706182
178	0x3d33d8c9	0.043907914
179	0x3d05fd10	0.032712042
180	0x3df4b595	0.119486965
181	0x3c7fda3c	0.015615996
182	0xbdc9c6bc	-0.09852359
183	0x3db8c674	0.09022227
184	0x3c8ef270	0.017449588
185	0x3dda0f46	0.106474444
186	0x3cda7189	0.026665466
187	0x3db94f39	0.09048314
188	0xbda7f9e1	-0.082019575
189	0x3d73c28c	0.059511706
190	0xbc420218	-0.0118413195
191	0x3e4e64b8	0.20155609
192	0x3d8be4c6	0.068307444
193	0xbd535b56	-0.051600777
194	0x3ce23eff	0.02761793
195	0x3d16bd6c	0.03680174
196	0x3ce4d752	0.027934704
197	0xbd125429	-0.035724793
198	0x3dce1749	0.10063035
199	0x3d86a3f3	0.065742396
200	0xbd677444	-0.056507364
201	0x3dd67c69	0.10472948
202	0xbb90e09a	-0.004421306
203	0x3dc6a1a6	0.09698801
204	0xbd2aa5e1	-0.0416621
205	0xbdcaa4d6	-0.09894721
206	0xbd8e6e7a	-0.069546655
207	0x3dba7f64	0.09106329
208	0x3e0dd9bc	0.1385259
209	0xbc6f4704	-0.014604334
210	0xbea2b3eb	-0.31777892
211	0x3d05b0d8	0.032639354
212	0x3d6ae987	0.057351615
213	0xbd63bc31	-0.055599395
214	0x3d8de0d1	0.06927646
215	0xbe15c99c	-0.14627689
216	0xbe3dd55c	-0.18538421
217	0xbe1b99a9	-0.15195335
218	0xbc427b04	-0.0118701495
219	0x3d7d3f3f	0.061827894
220	0xbdc362fe	-0.09540366
221	0xbc79fb5d	-0.015257684
222	0x3bbd47eb	0.0057763956
223	0x3debda9b	0.11516305
224	0xbe45c5d8	-0.19313753
225	0x3d094689	0.033514533
226	0x3dd3e769	0.10346872
227	0x3d5bf420	0.053699613
228	0xbe47cd4b	-0.19511907
229	0xbe04b493	-0.12959509
230	0x3e157a05	0.14597328
231	0x3d7f004c	0.062256142
232	0xbd975552	-0.073893204
233	0xbd11331c	-0.035449132
234	0x3a9118c9	0.0011070009
235	0xbd2f5dc7	-0.042814042
236	0x3df15566	0.117838666
237	0x3dc3ba60	0.095570326
238	0xbb89a23b	-0.0042002476
239	0x3d83937b	0.06424614
240	0xbdfba446	-0.12287192
241	0xbdddfbd6	-0.108390495
242	0xbe1077ac	-0.14108151
243	0xbd65dd1d	-0.056119073
244	0xbd9a09eb	-0.07521423
245	0x3dd3d10a	0.103426054
246	0xbd141984	-0.036157146
247	0x3c8188c8	0.015812293
248	0x3d798bc5	0.06092431
249	0x3d3aa014	0.04556282
250	0xbd6b1446	-0.05739238
251	0xbdcd568e	-0.100262746
252	0x3dd3bdc2	0.10338928
253	0x3d6a1d84	0.057157055
254	0xbd41a2aa	-0.04727427
255	0xbe0a5405	-0.13508613

layers.2.bias f4 [32]
0	0x3e0050e8	0.12530863
1	0x3de5736e	0.11203657
2	0x3e1b654a	0.15175357
3	0xbc0fd811	-0.008779542
4	0x3cb4eeff	0.022086618
5	0xbd9c8609	-0.07642753
6	0xbdb632cc	-0.088964075
7	0xbdb7a674	-0.08967295
8	0x3d82426c	0.06360325
9	0xbdf9e143	-0.122011684
10	0xbd0303c9	-0.03198603
11	0xbd94e1e5	-0.072696485
12	0x3dc63c37	0.09679454
13	0xbd01c486	-0.03168156
14	0x3d47a432	0.048740573
15	0xbd170c19	-0.03687677
16	0x3d744d52	0.05964405
17	0x3a8ba587	0.0010654189
18	0x3d92c989	0.07167346
19	0xbd26aea8	-0.04069391
20	0x3da5eb05	0.08101467
21	0xbdad6ecd	-0.08468399
22	0xbd036854	-0.032081917
23	0x3d1cbfc1	0.03826881
24	0x3e155938	0.14584816
25	0xbc18f489	-0.0093356455
26	0xbc6055ac	-0.013692301
27	0xbaaefda4	-0.0013350737
28	0x3d207599	0.03917465
29	0x3daf8330	0.08569944
30	0x3d56f077	0.05247542
31	0x3db5adef	0.08871066

layers.4.weight f4 [1, 32]
0	0x3debc166	0.11511497
1	0x3d894b42	0.067038074
2	0x3cf0810c	0.02935841
3	0xbeb39404	-0.35073864
4	0xbe459ef5	-0.19298919
5	0xbdfd845c	-0.12378761
6	0x3cbad768	0.022807792
7	0xbd340794	-0.04395254
8	0x3e0092ea	0.12556043
9	0xbe9353a1	-0.2877474
10	0x3d86d18f	0.06582939
11	0x3eb0d741	0.34539226
12	0xbde9bf4a	-0.114134386
13	0xbdbbcccd	-0.09169922
14	0x3de52ac9	0.11189801
15	0xbe20af67	-0.1569191
16	0xbd123dee	-0.035703592
17	0xbd99a64f	-0.07502424
18	0xbc9b04fb	-0.018923273
19	0x3e1f663f	0.15566348
20	0x3e1b17c5	0.15145786
21	0x3e35e3d9	0.17762698
22	0xbdb2014b	-0.08691653
23	0x3e17c41a	0.148209
24	0x3e04126c	0.12897652
25	0xbd6d4e57	-0.05793604
26	0xbe1d37ab	-0.15353267
27	0x3e1fea69	0.15616764
28	0xbe4b3a04	-0.1984635
29	0x3d712b47	0.058879163
30	0x3e41cc0d	0.18925495
31	0xbe9040c4	-0.28174412
