DNN/TrainedModel.pt (torch, 10967 bytes, 5 tensors)

layers.0.weight f4 [46, 23]
0	0x3c4e8a70	0.012606248
1	0x3e28373f	0.16427325
2	0x3de3e5b4	0.11127797
3	0x3d94f3fa	0.07273097
4	0x3e07f422	0.13276723
5	0xbd158386	-0.036502384
6	0x3daee59e	0.0853989
7	0x3e360b8e	0.17777845
8	0xbd9b1f97	-0.07574385
9	0x3c01d953	0.007925349
10	0xbcb6f72d	-0.02233466
11	0x3cc6254b	0.024187705
12	0xbe303116	-0.17206225
13	0xbc5bfa92	-0.01342644
14	0xbd772ae8	-0.060343653
15	0x3c1bdbd6	0.009512862
16	0x3ce98346	0.028504979
17	0xbd85f8f2	-0.06541623
18	0x3d049a54	0.03237374
19	0x3cdc5bd4	0.026899256
20	0x3df16e8f	0.117886655
21	0xbc51b0f1	-0.012798534
22	0xbdfcb1a6	-0.12338571
23	0x3d72d2a8	0.05928293
24	0x3d6a68be	0.057228796
25	0x3d8df5d6	0.06931655
26	0xbb47c40b	-0.003048184
27	0xbe1f6fa1	-0.15569927
28	0xbad18058	-0.0015983684
29	0x3d29f32e	0.04149168
30	0xbe008fcc	-0.12554854
31	0x3e08da82	0.13364604
32	0xb9907967	-0.00027556272
33	0xbe0340b5	-0.12817653
34	0x3c5e8ca8	0.01358334
35	0xbe2ea547	-0.17055236
36	0x3e2db7a1	0.1696458
37	0x3dcb9319	0.09940166
38	0xbba082b2	-0.0048983926
39	0xbdb0c2d4	-0.086309105
40	0xbe30fde3	-0.1728435
41	0xbdd38ab5	-0.10329191
42	0xbcd60d47	-0.026129378
43	0x3d863cc5	0.065545596
44	0x3e024fa7	0.12725697
45	0x3e3480e5	0.17627294
46	0xbe219609	-0.1577989
47	0xbdd2580b	-0.10270699
48	0xbe091cc1	-0.13389875
49	0xbdd61460	-0.10453105
50	0xbe03e868	-0.12881625
51	0xbdbcbc04	-0.09215549
52	0x3ae2616f	0.0017271469
53	0xbdf6a6df	-0.12043547
54	0xbd2701f2	-0.04077334
55	0x3c48ee87	0.012263901
56	0xbe5fca08	-0.21854413
57	0xbdf11dfd	-0.11773298
58	0x3e33dbcb	0.17564313
59	0x3e2954ee	0.16536304
60	0x3e24a950	0.16080213
61	0x3d768006	0.060180686
62	0x3df232d3	0.118261
63	0xbc655906	-0.013998276
64	0x3dd11610	0.10209286
65	0xbdb870b2	-0.0900587
66	0x3da9f792	0.082991734
67	0xbd802d95	-0.06258694
68	0x3cf5634f	0.02995458
69	0xbe713ad1	-0.23557593
70	0xbc5e5304	-0.013569597
71	0xbd634d21	-0.055493478
72	0xbe22368b	-0.15841119
73	0xbe6e7b27	-0.23289166
74	0x3e43bfe2	0.19116166
75	0x3e2f9074	0.17144948
76	0xbdb21135	-0.08694688
77	0x3dcaf3d9	0.099097915
78	0x3dc7bdb0	0.09752977
79	0xbdd8f6fe	-0.10593985
80	0x3c43c25b	0.011948193
81	0xbe27876a	-0.1636025
82	0xbe65bf6b	-0.22436301
83	0xbe331c8c	-0.17491359
84	0x3e3c3b09	0.18381895
85	0xbdbd2ca4	-0.0923703
86	0x3e239930	0.15976405
87	0xbd2d5f84	-0.04232742
88	0xbd60d992	-0.05489499
89	0x3d85bf69	0.06530649
90	0xbc312ccd	-0.010813904
91	0xbe34a969	-0.1764275
92	0xbdb74cc8	-0.08950192
93	0x3e2f2087	0.17102252
94	0xbd951535	-0.072794355
95	0xbd2a3834	-0.041557506
96	0xbdadadb7	-0.08480399
97	0xbba5dad3	-0.0050614863
98	0x3dc53601	0.09629441
99	0xbe071c9b	-0.13194506
100	0x3abd314b	0.0014434246
101	0x3df28343	0.118414424
102	0xbe1f9184	-0.15582854
103	0x3d41beed	0.04730122
104	0x3e33c586	0.17555818
105	0xbdb886f3	-0.090101145
106	0xbde061cc	-0.10956153
107	0xbdf98100	-0.12182808
108	0xbccc8e3c	-0.024970166
109	0x3e45f623	0.19332175
110	0x3e4bfd61	0.19920875
111	0x3e32ce2b	0.1746146
112	0xbe098568	-0.13429797
113	0xbd185fac	-0.037200615
114	0x3e02a7d1	0.1275933
115	0x3d8060fa	0.06268497
116	0x3d499474	0.04921384
117	0xbe1a9069	-0.1509415
118	0xbc182520	-0.009286195
119	0x3e005f2d	0.12536307
120	0x3e33a0d5	0.17541821
121	0xbce834b0	-0.028345436
122	0xbd90cc14	-0.07070175
123	0xbdaa829a	-0.083256915
124	0x3df79b0e	0.12090121
125	0xbe1597b8	-0.14608657
126	0xbdd5e59b	-0.104441844
127	0xbe04aeeb	-0.12957351
128	0xbe050f26	-0.1299406
129	0xbc9db930	-0.019253343
130	0xbe439804	-0.19100958
131	0x3e47ec6f	0.19523786
132	0x3dfa0ba6	0.12209253
133	0xbbdee7c0	-0.006802529
134	0xbdcf1d1c	-0.10112974
135	0xbe0a25d9	-0.13491
136	0xbe331242	-0.17487434
137	0xbe4f1ea0	-0.20226526
138	0x3e3a4d7b	0.18193619
139	0xbe9fa1e6	-0.31178206
140	0x3e0f12bb	0.13971989
141	0x3d005cd8	0.031338543
142	0xbe178534	-0.14796907
143	0x3df540b0	0.11975229
144	0xbe1e9186	-0.154852
145	0x3e4fa003	0.20275883
146	0x3df0cf9c	0.11758348
147	0x3e27db65	0.16392286
148	0xbd869387	-0.06571107
149	0xbe462fa4	-0.19354111
150	0xbdd3d032	-0.103424445
151	0xbd6f9eb0	-0.058500946
152	0x3e61ec1c	0.22062725
153	0xbcfd25fd	-0.030901903
154	0xbdcb23a9	-0.09918911
155	0xbda6df18	-0.081480205
156	0xbe0f4f66	-0.13995132
157	0xbd51991d	-0.05117141
158	0x3b16724d	0.0022956312
159	0xbe86bc77	-0.26315662
160	0x3e4ec2a2	0.20191434
161	0xbe661eb2	-0.22472647
162	0xbdb2a36f	-0.08722579
163	0xbe2e76e0	-0.17037535
164	0xbd405d71	-0.046964113
165	0x3d914ad4	0.070943505
166	0x3c9ca168	0.019119933
167	0xbe4a9d93	-0.19786672
168	0x3d3713d5	0.044696648
169	0xbe0b253d	-0.13588424
170	0x3da47b0f	0.08031284
171	0xbc0c7c3e	-0.0085745435
172	0xbd4d786d	-0.050163675
173	0x3e0c576d	0.13705225
174	0x3dc42be7	0.09578686
175	0xbd863477	-0.065529756
176	0xbca30a48	-0.019902363
177	0x3e29aaa3	0.16568999
178	0xbda4e2cc	-0.080510706
179	0xbda6cb20	-0.08144212
180	0x3e73ec81	0.23820688
181	0x3e0bc8e3	0.13650851
182	0xbe62ab66	-0.22135696
183	0x3e112962	0.14175943
184	0x3e756e7e	0.2396793
185	0xbd896d68	-0.06710321
186	0x3e627783	0.22115903
187	0xbd8f76a2	-0.07005049
188	0xbdde2662	-0.10847165
189	0xbe425b8c	-0.18980235
190	0xbd7f60a6	-0.06234803
191	0x3dc38e9b	0.09548684
192	0x3e6c3769	0.23068012
193	0xbdc143a9	-0.09436733
194	0xbd669fbf	-0.05630469
195	0x3e53c327	0.20679913
196	0xbe0cc51c	-0.13747066
197	0x3d82cfcd	0.06387291
198	0xbcb4d566	-0.022074413
199	0xbda5a1de	-0.08087514
200	0x3d91735b	0.071020804
201	0x3de2ea0d	0.11079798
202	0x3dcc67e4	0.09980753
203	0x3d629a26	0.05532279
204	0x3dd2bd3b	0.10289999
205	0x3cb1d469	0.02170773
206	0xbd62c4d2	-0.055363484
207	0xbdee78f7	-0.11644166
208	0x3c1bc280	0.009506822
209	0xbd5a7f24	-0.053343907
210	0xbe15d868	-0.14633334
211	0xbe2ebc76	-0.1706408
212	0xbe26c8e5	-0.16287573
213	0xbda6079e	-0.081069216
214	0x3c184520	0.009293824
215	0x3e19e47b	0.15028565
216	0x3cbe2600	0.02321148
217	0x3ca99520	0.020700991
218	0x3dce737e	0.10080622
219	0xbc0b7840	-0.008512557
220	0xbd742a50	-0.059610665
221	0xbdbbb508	-0.09165388
222	0x3b282fc0	0.0025663227
223	0x3d1c0f34	0.038100436
224	0x3d57fb74	0.05273004
225	0x3e3f0313	0.18653516
226	0xbe2c8d7f	-0.16850851
227	0xbdccfaa8	-0.100087464
228	0x3daddf32	0.08489837
229	0xbd57966c	-0.052633688
230	0xbb4ec5d0	-0.003155101
231	0xbcfe539c	-0.031045727
232	0x3e3e11e3	0.1856151
233	0x3e0d8570	0.13820434
234	0xbc2f9ba5	-0.010718261
235	0x3dc54afb	0.09633442
236	0x3e154a4d	0.14579125
237	0x3d63bb8c	0.05559878
238	0x3d0af1b1	0.0339219
239	0x3db3d9ef	0.08781802
240	0xbe17778f	-0.14791702
241	0x3dfa17f7	0.12211602
242	0xbdfb8566	-0.12281303
243	0x3e18785d	0.14889665
244	0x3db7fdec	0.08983979
245	0x3e2eb401	0.17060854
246	0x3d01e512	0.0317126
247	0xbe06e147	-0.13171874
248	0x3e319b77	0.17344461
249	0x3e419aff	0.18906783
250	0x3e280db5	0.16411479
251	0xbd55f6ac	-0.052237198
252	0xbde781ea	-0.11304076
253	0x3d805c58	0.06267613
254	0x3d0b6674	0.034033254
255	0x3d9c8d51	0.076441415

layers.0.bias f4 [46]
0	0x3e370bce	0.17875597
1	0xbd547a19	-0.051874254
2	0xbe4c30a0	-0.19940424
3	0x3d96c54a	0.07361849
4	0x3e8cffa4	0.27538788
5	0xbe1ef795	-0.15524133
6	0xbd1346ad	-0.035956074
7	0xbd7c9d7b	-0.061673623
8	0x3ea988d3	0.331122
9	0xbe1c065b	-0.152368
10	0x3d81ae9a	0.06332131
11	0xbd5ca057	-0.05386385
12	0x3e81a8ad	0.25324002
13	0x3e1dc9a0	0.15408945
14	0x3dc6df47	0.097105555
15	0xbd9fe3c3	-0.07807114
16	0x3e19a9ac	0.15006131
17	0x3e8a5afa	0.27022535
18	0x3b4fa634	0.0031684758
19	0xbc260e20	-0.010135204
20	0x3e5d429e	0.21607444
21	0x3ea15eb7	0.31517574
22	0x3bd655f1	0.0065410067
23	0xbd4f87a0	-0.05066645
24	0x3db821c7	0.089908175
25	0x3d6e8d51	0.05824024
26	0x3d03810a	0.032105483
27	0x3c45518b	0.012043367
28	0xbe513433	-0.20430069
29	0x3e97e99c	0.29670417
30	0xbe13459b	-0.14382021
31	0xbdd1899e	-0.102313265
32	0xbdba80c5	-0.09106592
33	0x3d5278c9	0.05138472
34	0xbb33a525	-0.0027411666
35	0xbe20098e	-0.15628645
36	0xbe348f95	-0.17632897
37	0x3e99352f	0.29923388
38	0x3bf80f5a	0.0075701894
39	0x3d74c81c	0.05976115
40	0x3e339cdb	0.17540304
41	0x3debeb9a	0.11519547
42	0xbe3fbdc0	-0.18724728
43	0x3e573e18	0.2101978
44	0x3e5412b6	0.20710263
45	0xbe81aa61	-0.253253

layers.2.weight f4 [23, 46]
0	0xbdfcdcb7	-0.123467855
1	0x3d467291	0.048449103
2	0xbe0cd755	-0.13754018
3	0x3e0d8be0	0.1382289
4	0xbdc37052	-0.09542908
5	0x3e0a484a	0.13504139
6	0x3d9aa1f6	0.07550423
7	0x3e13be60	0.14428091
8	0xbddb1894	-0.10698047
9	0xbd1413bc	-0.036151633
10	0x3dc0d503	0.09415629
11	0x3d7f0a08	0.062265426
12	0x3e06213d	0.13098617
13	0x3e0f1a67	0.13974915
14	0x3dff6dd8	0.12472123
15	0xbd9c0b79	-0.07619376
16	0xbcc58858	-0.024112865
17	0x3d85cc53	0.065331124
18	0xbe135dec	-0.14391297
19	0xbdca1a23	-0.098682664
20	0x3d0a9948	0.033837587
21	0x3d2502e5	0.040285964
22	0x3dcb0601	0.099132545
23	0x3dae677c	0.08515832
24	0xbe10941c	-0.14118999
25	0xbd7b9d54	-0.061429337
26	0x3ded3d78	0.1158399
27	0x3d57f594	0.052724436
28	0xbdc1026d	-0.09424291
29	0x3d3a4c74	0.045483068
30	0xbdef7565	-0.11692313
31	0xbd84157c	-0.0644941
32	0x3d1f222a	0.03885094
33	0x3e0a8049	0.135255
34	0xbe138c8f	-0.14409088
35	0x3c6dd0f0	0.014515147
36	0xbddefa98	-0.10887641
37	0xbd0ceeda	-0.034407474
38	0x3d40dac2	0.047083624
39	0xbdf531b8	-0.11972374
40	0xbd7a1e7d	-0.061064232
41	0xbdae6691	-0.08515657
42	0xbd039bba	-0.032130934
43	0x3dc831d9	0.09775133
44	0xbdac90df	-0.084260695
45	0xbd976723	-0.07392719
46	0x3db80142	0.08984615
47	0xbc666006	-0.01406098
48	0xbcb33bb6	-0.021879058
49	0xbcd79fa9	-0.02632125
50	0x3df36147	0.118837886
51	0xbd06158a	-0.032735385
52	0x3d6873ac	0.05675094
53	0x3df93ce1	0.12169815
54	0x3e16fb60	0.1474433
55	0x3e07bd12	0.13255718
56	0x3e01be09	0.12670149
57	0x3e0e62e9	0.13904919
58	0x3e79d6dd	0.2439837
59	0x3daf2322	0.08551623
60	0x3e39f939	0.18161477
61	0xbc4acaba	-0.012377435
62	0x3e69d5ce	0.22835466
63	0x3d6cb63d	0.057790983
64	0x3d952eb9	0.07284302
65	0xbdf36f8a	-0.11886509
66	0x3caeb7df	0.021327911
67	0x3caacf9c	0.020850949
68	0x3e064ea6	0.1311594
69	0x3dfc9868	0.12333757
70	0xbc97f86b	-0.018551072
71	0xbd307117	-0.0430766
72	0x3e29374c	0.16525
73	0xbe0bdcb4	-0.1365841
74	0x3b54eeb7	0.0032490918
75	0x3cb29683	0.021800285
76	0x3d87ab2a	0.06624444
77	0x3d069dc6	0.03286531
78	0x3eb1da26	0.34736747
79	0x3da42c56	0.08016269
80	0x3e17cf01	0.1482506
81	0x3da967a8	0.08271724
82	0xbd09e440	-0.03366494
83	0xbda8c678	-0.0824098
84	0x3e729e8b	0.23693292
85	0xbdb2e897	-0.08735769
86	0xbd6c0c23	-0.057628762
87	0x3deda46c	0.116036266
88	0xbde250aa	-0.11050542
89	0x3c3d63f1	0.011559472
90	0x3d7440a2	0.05963195
91	0xbde403c3	-0.1113353
92	0x3e05801e	0.13037154
93	0x3e08939a	0.13337556
94	0x3d81e5c4	0.063426524
95	0xbe073d7f	-0.13207053
96	0x3d19b050	0.03752166
97	0x3dc1ed4c	0.09469089
98	0x3d3dafdc	0.04631029
99	0xbc3b9d20	-0.011451036
100	0xbc53c6b0	-0.012925789
101	0x3d6cd77c	0.05782269
102	0x3cf3be80	0.029753923
103	0x3cd9b260	0.026574314
104	0xbd70e5bc	-0.05881284
105	0x3d4b7b78	0.049678296
106	0xbd991c7f	-0.07476138
107	0x3da65da8	0.08123332
108	0xbdf7594a	-0.120775774
109	0x3db3ada4	0.08773354
110	0xbd91d98c	-0.07121572
111	0xbdc9db54	-0.09856287
112	0xbddf4406	-0.10901646
113	0x3b524c40	0.0032088906
114	0xbe16e05b	-0.14734022
115	0x3dc1397e	0.09434794
116	0xbe052ba7	-0.13004933
117	0x3d808ab2	0.06276454
118	0x3baa1f80	0.0051917434
119	0xbe066acc	-0.13126677
120	0x3d9fdf0a	0.07806213
121	0xbd0549f4	-0.03254123
122	0xbe02ad17	-0.12761341
123	0xbe167687	-0.14693652
124	0xbc059b10	-0.008154646
125	0x3e017c08	0.1264497
126	0xbd394072	-0.045227475
127	0x3df72544	0.12067655
128	0xbdc0a26e	-0.09405981
129	0xbd52fb8c	-0.051509425
130	0x3e0de3dc	0.13856453
131	0x3dc1cd58	0.09462994
132	0xbd427f42	-0.047484644
133	0x3dfe4344	0.12415174
134	0x3dfbe544	0.12299588
135	0xbdd568d0	-0.10420382
136	0x3e077d28	0.13231337
137	0xbdb8624e	-0.09003125
138	0x3c0d834c	0.008637261
139	0xbd1a81db	-0.037721496
140	0xbd4dc8e8	-0.050240427
141	0x3de960e9	0.11395437
142	0x3e1bff9b	0.15234224
143	0xbd1a239e	-0.037631623
144	0x3e6e6ba5	0.2328325
145	0x3d7906f9	0.060797665
146	0x3d20ebab	0.03928725
147	0xbe0c19c2	-0.13681701
148	0xbe0c7683	-0.13717084
149	0x3d2c0364	0.04199542
150	0x3e5e971a	0.21737328
151	0xbc84d59a	-0.016215134
152	0x3e8384d7	0.25687286
153	0x3e1346db	0.14382498
154	0x3e29e9aa	0.16593042
155	0x3e2cc6e6	0.16872749
156	0x3c867177	0.016411526
157	0xbdffb84b	-0.12486323
158	0x3e032754	0.12807971
159	0x3e1f06f0	0.1552999
160	0x3d785c43	0.060634863
161	0xbdfd0795	-0.12354962
162	0x3d81101f	0.06301903
163	0x3d51d417	0.051227655
164	0xbb1f25f2	-0.0024284092
165	0x3d7fd3d4	0.062457874
166	0x3de2e8e0	0.11079574
167	0x3d085054	0.033279732
168	0x3e05262c	0.13002843
169	0xbdbb18db	-0.091356
170	0x3e1553aa	0.14582697
171	0x3c352fe9	0.011058786
172	0x3dac2800	0.08406067
173	0xbdcb41ec	-0.09924683
174	0xbe03272b	-0.1280791
175	0x3b886ece	0.0041635996
176	0x3e478107	0.19482814
177	0xbdc1a693	-0.094556
178	0x3c624987	0.013811476
179	0x3dedf568	0.11619073
180	0xbd8535e2	-0.06504418
181	0x3e0395e1	0.12850143
182	0x3e9ab507	0.30216238
183	0xbe70405f	-0.23462056
184	0xbdadbf66	-0.08483772
185	0x3e05cd28	0.13066542
186	0x3e0ae2f8	0.13563144
187	0x3d2654e5	0.040608305
188	0x3cc7fe51	0.02441326
189	0x3ba49240	0.005022317
190	0x3dd558c3	0.104173206
191	0x3d846bae	0.06465851
192	0xbda2ec97	-0.07955282
193	0xbd885a09	-0.06657798
194	0xbe137635	-0.14400561
195	0xbd054f10	-0.032546103
196	0x3ddd23b1	0.10797823
197	0xbe14c8af	-0.1452968
198	0xbc05419b	-0.008133317
199	0xbdf78090	-0.12085068
200	0xbe0c7752	-0.13717392
201	0x3dbcc28a	0.09216793
202	0xbd9d261d	-0.07673285
203	0x3d19bbb8	0.03753254
204	0x3d7cd320	0.061724782
205	0xbcbd3ef0	-0.0231013
206	0x3dedaaa7	0.11604815
207	0xbdfaee21	-0.12252451
208	0xbc4e6cc9	-0.012599179
209	0xbcb2d84f	-0.02183166
210	0xbe1f2ba3	-0.1554399
211	0xbc0b3e50	-0.008498743
212	0xbe005e9d	-0.12536092
213	0x3cd8e8c5	0.02647818
214	0xbdce3d78	-0.10070318
215	0xbcc19580	-0.023630857
216	0x3df902d9	0.12158746
217	0xbe04f0e7	-0.12982522
218	0xbe05a2ee	-0.13050434
219	0xbc38b500	-0.0112736225
220	0xbe14ae8e	-0.14519712
221	0x3c46696f	0.012110098
222	0x3de949f0	0.113910556
223	0x3d921877	0.071335725
224	0x3cba40eb	0.022736033
225	0xbe14327d	-0.14472385
226	0x3d27fcba	0.041012503
227	0xbe143777	-0.14474283
228	0xbbb7d91b	-0.005610598
229	0xbe0c3415	-0.13691743
230	0xbd8bd065	-0.068268575
231	0x3d15fe94	0.036619738
232	0xbda1c877	-0.07899564
233	0xb97d06fe	-0.00024130565
234	0xbe22424d	-0.15845604
235	0xbd7a3160	-0.061082244
236	0x3ccb57f8	0.02482222
237	0x3e0e25f2	0.13881662
238	0x3bcad9f5	0.0061905333
239	0x3d526f84	0.05137588
240	0xbd0ba28e	-0.03409057
241	0xbb8458ce	-0.0040389067
242	0xbd34170d	-0.043967295
243	0x3ce3d3db	0.027810981
244	0x3e09f50e	0.13472387
245	0xbdd3f262	-0.10348965
246	0xbb14a76e	-0.0022682804
247	0x3def65ea	0.116893604
248	0xbcee3f6c	-0.029082976
249	0x3d8f4780	0.069960594
250	0xbe16be19	-0.14720954
251	0xbaec7c8e	-0.0018042491
252	0xbdddbd3a	-0.10827108
253	0x3c6497a0	0.013952166
254	0x3dad6d73	0.084681414
255	0xbde71322	-0.11282946

layers.2.bias f4 [23]
0	0xbd4078f3	-0.046990346
1	0x3e5faef9	0.2184409
2	0xbde8bd6a	-0.11364253
3	0x3bc32e56	0.0059564514
4	0x3d7f1b53	0.062281918
5	0x3b01e502	0.0019820337
6	0xbe079c92	-0.1324332
7	0x3d942b9b	0.072348796
8	0xbc8bb900	-0.017055988
9	0xbcc4fba8	-0.02404578
10	0xbda0d190	-0.07852471
11	0x3d9f2ebe	0.07772587
12	0xbe039565	-0.12849958
13	0x3db9c840	0.09071398
14	0x3de674e1	0.11252762
15	0xbdad05ba	-0.08448358
16	0x3e4d368b	0.20040338
17	0x3daf4d0c	0.085596174
18	0x3d8856af	0.066571586
19	0x3e0b71bd	0.13617606
20	0x3c88c5d7	0.0166959
21	0x3d94f507	0.07273298
22	0xbd952ec4	-0.072843105

layers.4.weight f4 [1, 23]
0	0xbdf39280	-0.11893177
1	0x3e1d880d	0.1538393
2	0x3e1a2db7	0.15056501
3	0x3e67543e	0.2259073
4	0xbdd8ab48	-0.10579544
5	0xbe01ece3	-0.12688021
6	0xbe25f002	-0.16204837
7	0xbd90e66f	-0.07075202
8	0xbc2520ef	-0.010078653
9	0x3e1f3243	0.15546517
10	0xbc9fb46b	-0.01949521
11	0xbd89d977	-0.06730931
12	0x3d37f820	0.044914365
13	0xbe0f6b00	-0.14005661
14	0x3e279f32	0.16369322
15	0xbbe41f5a	-0.006961745
16	0x3e2d6c28	0.1693579
17	0xbdc8dd31	-0.09807814
18	0x3deee95c	0.116656035
19	0x3c7f3bad	0.015578193
20	0xbde10223	-0.10986736
21	0xbdf6414c	-0.12024173
22	0xbd9f704f	-0.07785093
