DNN/TrainedModel.pt (torch, 10967 bytes, 5 tensors)

layers.0.weight f4 [46, 23]
0	0xbdc33d12	-0.095331326
1	0xbe72cdc0	-0.237113
2	0xbdc42058	-0.095764816
3	0x3db21909	0.08696181
4	0xbe14e162	-0.14539102
5	0xbd89f29c	-0.06735727
6	0xbcb2f5d3	-0.021845734
7	0xbe06f9da	-0.13181248
8	0x3d1bfb03	0.03808118
9	0x3e27e705	0.1639672
10	0x3cc4eb0b	0.024037858
11	0x3c66fff6	0.014099112
12	0xbe3438d7	-0.17599808
13	0xbd96705b	-0.07345649
14	0x3dfaf9ec	0.122547
15	0xbd326bc3	-0.0435598
16	0xbd0c16ba	-0.03420136
17	0x3dbb6d61	0.09151722
18	0x3cce0eeb	0.025153598
19	0x3e411eb4	0.18859369
20	0xbda6198f	-0.08110344
21	0x3e42bf4e	0.1901829
22	0xbca300ae	-0.019897785
23	0xbcc2eeaa	-0.023795445
24	0xbe0e9dc9	-0.13927378
25	0xbde8063a	-0.113293126
26	0x3e1dddf3	0.15416698
27	0x3e8f4275	0.2798039
28	0xbd0f5e09	-0.03500179
29	0x3e4df9d9	0.2011484
30	0x3d621809	0.055198703
31	0xbcea55d7	-0.028605385
32	0xbe1201ac	-0.1425845
33	0xbe244e91	-0.16045596
34	0x3e5aa69d	0.2135262
35	0x3e34a87d	0.17642398
36	0x3e58da2f	0.2117698
37	0xbdf132ac	-0.11777243
38	0xbe0c677d	-0.13711353
39	0xbab3adae	-0.0013708377
40	0x3c2d7d16	0.010588905
41	0x3ddd11d1	0.10794414
42	0x3e141dd2	0.144645
43	0xbd3083a7	-0.043094303
44	0xbc01036b	-0.00787435
45	0xbe3496d6	-0.17635664
46	0x3db25193	0.08706965
47	0x3e22703b	0.15863125
48	0x3e42782a	0.18991151
49	0xbe1376b7	-0.14400755
50	0xbe50af36	-0.20379338
51	0xbe3c1888	-0.18368733
52	0x3b99e76e	0.004696778
53	0xbd102706	-0.035193466
54	0xbe45d723	-0.1932035
55	0xbc1384fc	-0.009003874
56	0xbda54b3f	-0.08070993
57	0xbe48ce2d	-0.196099
58	0x3df211d8	0.1181981
59	0xbe264900	-0.16238785
60	0x3cedd921	0.0290342
61	0x3e2c0783	0.1679974
62	0xbe17cec3	-0.14824967
63	0x3db161b4	0.086612135
64	0xbcba8796	-0.02276973
65	0x3e165f81	0.1468487
66	0xbe04dfa4	-0.12975937
67	0xbc18f2e2	-0.0093352515
68	0xbca9e182	-0.020737413
69	0xbe4791aa	-0.1948916
70	0xbd8d19e3	-0.06889703
71	0x3e1871a7	0.14887105
72	0x3e132d4c	0.14372748
73	0x3ea46cf8	0.32114387
74	0x3d4f1e5f	0.050566074
75	0x3e1624e9	0.14662518
76	0xbd804345	-0.06262831
77	0x3e42972e	0.19002983
78	0x3db1e60a	0.086864546
79	0xbe109d5c	-0.14122528
80	0xbe06072c	-0.13088673
81	0xbd3499ac	-0.044091865
82	0x3e08a972	0.13345888
83	0xbe30a8bb	-0.17251866
84	0xbd2fe83b	-0.04294608
85	0xbd96fa9f	-0.07372021
86	0xbdfbd87f	-0.12297153
87	0xbe45745f	-0.19282673
88	0x3e05ee1c	0.13079113
89	0x3e45e4e7	0.193256
90	0xbe235b51	-0.15952803
91	0xbde101fb	-0.10986706
92	0x3de1c1ac	0.11023268
93	0x3dac5e55	0.0841643
94	0xbdb31841	-0.087448604
95	0x3d444dec	0.047925875
96	0xbd878200	-0.066165924
97	0xbe29ba13	-0.16574888
98	0xbde2747c	-0.11057374
99	0xbc852784	-0.016254194
100	0xbd68fd52	-0.05688221
101	0x3e74fc16	0.23924288
102	0x3d427c90	0.047482073
103	0xbdb1352d	-0.086527206
104	0xbce99b7d	-0.028516525
105	0x3e0a08cf	0.13479923
106	0x3dccd722	0.10001971
107	0x3e3c3eaf	0.18383287
108	0x3d0fe778	0.035132855
109	0x3d399a6a	0.045313276
110	0x3d6dd8d7	0.058068123
111	0x3de0f920	0.10985017
112	0xbde95a74	-0.11394206
113	0xbd04c98d	-0.032418776
114	0xbe32ee38	-0.17473686
115	0x3dec83ed	0.115486
116	0x3df276ff	0.11839103
117	0x3d53ea20	0.05173695
118	0xbe2a157b	-0.16609757
119	0xbdf851f9	-0.1212501
120	0xbd08d549	-0.03340653
121	0x3bf9f64a	0.007628237
122	0x3df8c47b	0.12146851
123	0x3e051f8b	0.13000314
124	0x3dba36f8	0.09092516
125	0xbcb0f906	-0.021603119
126	0xbd8f1bd7	-0.06987732
127	0xbd4383f3	-0.04773326
128	0x3e193f59	0.14965571
129	0xbe56b409	-0.20967115
130	0xbe6c216e	-0.23059627
131	0x3d286dd5	0.04112037
132	0xbda7751e	-0.08176635
133	0xbda5b2a9	-0.08090717
134	0xbd7cf0b5	-0.061752994
135	0x3cd87e57	0.026427431
136	0xbe155ec2	-0.14586928
137	0xbd08b002	-0.03337098
138	0x3b119f29	0.002222011
139	0xbdef8504	-0.116952926
140	0x3e700f6e	0.23443386
141	0xbe34ec0c	-0.1766817
142	0x3de5c9a7	0.11220103
143	0x3d9c7dc2	0.07641174
144	0xbbd8a3ae	-0.006611309
145	0xbe2dfa47	-0.16990004
146	0x3dfc9c43	0.12334492
147	0x3d8cf639	0.06882901
148	0x3dcee426	0.101021096
149	0xbe53be29	-0.20678009
150	0xbdb56223	-0.08856609
151	0x3e16b988	0.14719212
152	0x3e607c7e	0.2192249
153	0x3e26f52f	0.16304468
154	0xbb9997a3	-0.004687266
155	0xbe6feac2	-0.23429397
156	0xbd8bee5e	-0.06832574
157	0xbdfd15c6	-0.123576686
158	0xbdc15e02	-0.09441759
159	0xbe4157b5	-0.18881114
160	0x3e271eb4	0.16320306
161	0xbd7be871	-0.06150097
162	0xbe253a67	-0.1613556
163	0x3d0b74e9	0.03404704
164	0x3dc887f0	0.09791553
165	0xbb9084fb	-0.0044103838
166	0xbdee7e07	-0.116451316
167	0xbe1ae81b	-0.15127604
168	0x3e4be077	0.19909845
169	0xbe3f98e1	-0.18710662
170	0xbd45f521	-0.048329476
171	0x3d580b22	0.052744992
172	0xbdf513f0	-0.119666934
173	0xbe246aea	-0.1605641
174	0xbe0c7bf1	-0.13719155
175	0xbe263828	-0.1623236
176	0x3dc45af8	0.095876634
177	0x3d233130	0.03984183
178	0xbe2a16a2	-0.16610196
179	0x3e1e45de	0.1545634
180	0xbe341b32	-0.17588499
181	0xbde7f537	-0.11326068
182	0x3dedce9e	0.11611675
183	0x3cee9979	0.029125916
184	0xbe406199	-0.1878723
185	0x3da3aeb5	0.07992307
186	0x3e6826c6	0.22671041
187	0x3de7f108	0.1132527
188	0x3d6d8338	0.057986468
189	0xbcad71a1	-0.021172347
190	0xbde3e909	-0.11128432
191	0xbe13f30f	-0.14448188
192	0xbdb5a33a	-0.088690236
193	0xbd57dbcb	-0.052699845
194	0x3d87a277	0.066227846
195	0xbaba4a1f	-0.0014212764
196	0xbdafdb6c	-0.08586773
197	0x3e3f9f47	0.18713103
198	0x3e2a91cb	0.16657178
199	0x3e1bdfa6	0.15222034
200	0xbd0b0292	-0.033937998
201	0x3e302fd3	0.17205743
202	0x3df76840	0.12080431
203	0xbe1d5f60	-0.15368414
204	0x3e4bafd8	0.19891298
205	0xbd21eeec	-0.039534494
206	0x3d9b5ef8	0.07586473
207	0xbe6d4231	-0.23169781
208	0x3e1dd4da	0.15413228
209	0x3e2e4ee2	0.17022279
210	0xbd4465e5	-0.047948737
211	0x3d7fbd1a	0.0624362
212	0x3d90403e	0.07043503
213	0xbd1d7917	-0.03844556
214	0x3d20cbf6	0.039257012
215	0xbc38eaf9	-0.011286491
216	0x3a69f9c7	0.00089254644
217	0x3e3d3253	0.18476228
218	0xbd8a6436	-0.06757395
219	0xbd1dfad4	-0.038569286
220	0x3e378f71	0.17925812
221	0xbe2d8f04	-0.16949087
222	0xbc83f1f0	-0.016106576
223	0xbe026b28	-0.1273619
224	0xbcef3461	-0.02919978
225	0x3e56097a	0.20902053
226	0x3e0e5613	0.13900022
227	0x3da3af80	0.07992458
228	0x3d2624b2	0.04056234
229	0x3d6b382f	0.057426628
230	0x3d64f9de	0.055902354
231	0x3e035ea5	0.12829073
232	0x3dc9e317	0.09857767
233	0xbcb5d29c	-0.022195153
234	0xbe3d7d00	-0.18504715
235	0xbc6a9c56	-0.0143195
236	0xbbdbe23e	-0.00671032
237	0x3cf5ffb1	0.03002915
238	0x3da2a774	0.079420954
239	0x3e0b9f54	0.13634998
240	0xbe38e143	-0.1805468
241	0x3d24aeb8	0.040205687
242	0xbe142b9d	-0.14469762
243	0x3d287a51	0.041132275
244	0xbdba0db2	-0.090846434
245	0xbe17db08	-0.14829648
246	0xbd9334e6	-0.07187824
247	0xbe149c82	-0.14512828
248	0xbdff8498	-0.12476462
249	0xbe5e2261	-0.21692802
250	0xbdf4b37f	-0.11948299
251	0x3d97b1cb	0.07406958
252	0xbdbbb796	-0.091658756
253	0xbdf5fccc	-0.12011108
254	0xbdc48d93	-0.09597316
255	0xbc8dc1b0	-0.017304271

layers.0.bias f4 [46]
0	0x3e824a83	0.25447473
1	0x3e2aa68a	0.16665092
2	0x3d9a5c82	0.07537176
3	0x3e366a84	0.1781407
4	0x3dab3bff	0.08361053
5	0x3e691091	0.22760226
6	0x3daa0608	0.083019316
7	0x3de49ddc	0.11162922
8	0x3e821d66	0.25413054
9	0x3d161a8c	0.03664641
10	0x3caec8e2	0.021336023
11	0x3d892d8e	0.06698142
12	0xbc7b73e1	-0.015347452
13	0x3dbc1c6f	0.09185111
14	0xbcc003ec	-0.02343937
15	0xbddc06f7	-0.10743516
16	0xbd78f1d7	-0.06077751
17	0xbe18695e	-0.14883944
18	0x3e24bdaf	0.16087984
19	0xbe06c5da	-0.13161412
20	0x3e074bbc	0.13212484
21	0x3dd65bd1	0.10466731
22	0xbd57fd55	-0.05273183
23	0x3d97a71e	0.07404922
24	0x3e210004	0.15722662
25	0x3e100c7c	0.14067262
26	0xbe29c5ce	-0.16579363
27	0xbe502117	-0.20325123
28	0x3e5cef88	0.21575749
29	0xbe3543c2	-0.17701629
30	0xbda81e56	-0.08208911
31	0xbe329f26	-0.17443523
32	0xbcaced45	-0.021109233
33	0xbe2bdaa0	-0.16782618
34	0xbe0f45be	-0.13991448
35	0x3e479130	0.19488978
36	0xbd6e2ae0	-0.058146358
37	0xbe483a50	-0.19553494
38	0x3e13c0ee	0.14429066
39	0x3e770890	0.2412436
40	0x3cd73fc1	0.026275517
41	0xbc701fe3	-0.01465604
42	0xbe29d12d	-0.165837
43	0xbb449c28	-0.0030000303
44	0xbb261fc0	-0.0025348514
45	0xbdeb7857	-0.114975624

layers.2.weight f4 [23, 46]
0	0x3de1a723	0.11018207
1	0x3d947864	0.07249525
2	0x3d108d17	0.035290804
3	0xbd855a68	-0.06511384
4	0x3e0aa613	0.13539915
5	0x3da7e5ed	0.08198152
6	0xbdfb39b6	-0.12266867
7	0x3c839ea3	0.016066855
8	0xbd1cdae2	-0.03829468
9	0x3de12e20	0.10995126
10	0xbd4f0119	-0.050538156
11	0xbd71cad2	-0.059031315
12	0xbdd76bb1	-0.105185874
13	0xbe0f61b9	-0.14002122
14	0xbcbfcd13	-0.023413217
15	0xbb5e4d51	-0.0033920596
16	0xbe2c6a36	-0.16837391
17	0x3bb2d5a0	0.005457595
18	0xbe1ef2d0	-0.15522313
19	0x3d0f68fc	0.03501223
20	0xbe130ba3	-0.14359908
21	0x3d701757	0.05861601
22	0x3cb64cb6	0.022253376
23	0xbdf7acd2	-0.1209351
24	0x3e10bfb8	0.14135635
25	0x3cf3d8d7	0.029766483
26	0xbc9b4b08	-0.018956676
27	0x3d915ceb	0.07097801
28	0xbe022830	-0.12710643
29	0x3dde42e6	0.108526036
30	0xbdfc2cf6	-0.12313263
31	0xbd3f17a8	-0.04665342
32	0xbda8b2f9	-0.08237261
33	0x3da7d080	0.08194065
34	0xbd02353c	-0.03178905
35	0x3db044fd	0.086069085
36	0x3d109a77	0.03530356
37	0xbd85da00	-0.06535721
38	0xbdd26bb5	-0.1027445
39	0xbcdac076	-0.0267031
40	0xbccc7552	-0.024958286
41	0x3ceaf502	0.028681282
42	0x3e6166c1	0.22011854
43	0xbdd8b8ea	-0.105821446
44	0x3d2f0960	0.04273355
45	0x3d96497c	0.07338235
46	0x3d11611a	0.035492994
47	0xbdd5bbc5	-0.10436205
48	0x3d757028	0.059921414
49	0x3df4886f	0.11940085
50	0x3dec44cd	0.1153656
51	0xbbbbdeb9	-0.0057333377
52	0x3e85ae14	0.26109374
53	0x3e286bc7	0.16447364
54	0x3d54eb99	0.051982496
55	0xbdd317ec	-0.10307297
56	0x3dee72cc	0.116429895
57	0x3d03e60c	0.03220181
58	0xbe11e004	-0.14245611
59	0x3dfd3651	0.12363876
60	0xbdba12b7	-0.09085601
61	0x3ce2d62d	0.027690018
62	0xbd81e203	-0.063419364
63	0x3d7f8a74	0.0623879
64	0xbc60d157	-0.0137217855
65	0xbc5d54a0	-0.013508946
66	0x3e83b8e2	0.25726992
67	0xbe474fdb	-0.19464056
68	0x3dbbbd4e	0.091669664
69	0xbdd8cb0c	-0.10585603
70	0x3d15cc72	0.036571927
71	0x3e08024c	0.13282126
72	0xbc08f9b0	-0.008360311
73	0x3e0b1271	0.13581254
74	0xbd74169b	-0.05959187
75	0x3e1e18a7	0.15439092
76	0xbd959e03	-0.07305529
77	0x3b9d52a2	0.0048011104
78	0x3dbeac07	0.09310155
79	0x3da611e4	0.08108881
80	0x3da52638	0.0806393
81	0x3e6cd90c	0.23129672
82	0xbe065a76	-0.13120446
83	0x3e86a369	0.26296547
84	0x3d0e14b0	0.034687698
85	0x3e1a0b89	0.15043463
86	0x3d36d4d1	0.04463655
87	0xbd6c4cd4	-0.057690457
88	0x3d8595f1	0.0652274
89	0x3dfe396d	0.12413297
90	0x3def4468	0.11682969
91	0xbd628668	-0.05530396
92	0xbd341087	-0.043961074
93	0x3d4d6272	0.050142713
94	0x3bc8c234	0.0061266664
95	0x3de0dda6	0.10979776
96	0xbc88e0ba	-0.01670872
97	0x3db536bc	0.088483304
98	0xbcd31889	-0.025768535
99	0x3d839127	0.0642417
100	0xbdf47ffc	-0.119384736
101	0x3bea1a35	0.0071442374
102	0x3caf921a	0.021431971
103	0xbd012ef8	-0.031538934
104	0x3d4cc441	0.04999185
105	0x3c9f769a	0.019465733
106	0xbe1852fd	-0.14875408
107	0xbdb1a9e9	-0.08674986
108	0xbd39b22a	-0.045335926
109	0xbd83fa61	-0.0644424
110	0xbe1c9fe9	-0.15295376
111	0x3e0cc8ee	0.13748524
112	0x3d909890	0.07060349
113	0xbdea7c6d	-0.114495136
114	0xbe032fe9	-0.12811245
115	0x3d8b86a8	0.06812793
116	0xbc66076b	-0.0140398545
117	0xbdbf5e9a	-0.09344216
118	0x3d5cdc14	0.05392082
119	0xbbefdfb9	-0.007320371
120	0x3dd0b162	0.10190083
121	0xbdf028c4	-0.117265254
122	0xbcde1050	-0.027107388
123	0xbd773fb4	-0.060363486
124	0x3d20b1cc	0.03923206
125	0xbd0d97bc	-0.034568533
126	0xbdb3cdd2	-0.087794915
127	0x3e0461eb	0.12927978
128	0x3c1d5cbf	0.009604632
129	0xbd64fcbd	-0.055905093
130	0xbd003d51	-0.031308476
131	0xbce4c919	-0.027927922
132	0xbd5288c6	-0.05139997
133	0xbcc1e405	-0.023668298
134	0xbd5c2519	-0.053746317
135	0x3de8567d	0.11344621
136	0x3db0e2b6	0.08636992
137	0x3da7551b	0.081705295
138	0x3d8cd52e	0.06876598
139	0x3c98d59a	0.01865654
140	0x3c0abd18	0.008467935
141	0x3da7a735	0.08186189
142	0x3dd9b706	0.10630612
143	0x3e09baa9	0.13450111
144	0xbd69e3a3	-0.057101857
145	0xbdfb55a6	-0.122721955
146	0x3e1258f2	0.14291742
147	0xbd8745df	-0.06605124
148	0x3cca527d	0.024697537
149	0xbd11b454	-0.035572365
150	0x3d75a29b	0.059969526
151	0xbcc0978f	-0.023509769
152	0xbdfd395a	-0.123644546
153	0x3e0f9d5c	0.14024872
154	0x3dc68eec	0.09695229
155	0xbda31d15	-0.07964531
156	0xbdebe5e4	-0.115184575
157	0x3dba27b4	0.09089604
158	0x3d7318f7	0.05934998
159	0xbc20f9be	-0.009825168
160	0x3e0c6082	0.1370869
161	0xbcc7dfd6	-0.024398725
162	0xbd2986ea	-0.04138843
163	0xbd88f120	-0.06686616
164	0xbd4dbd24	-0.050229207
165	0x3e2bb098	0.16766584
166	0x3de367f6	0.11103813
167	0xbc83cd4b	-0.016089102
168	0x3d827c94	0.06371418
169	0xbbae8d24	-0.005326884
170	0xbdbd6a5d	-0.09248803
171	0x3e04f8c4	0.12985522
172	0xbdceb155	-0.10092417
173	0x3c9a38b9	0.018825876
174	0x3db4a810	0.08821118
175	0xbc35fb94	-0.011107344
176	0x3e434c55	0.19072087
177	0x3e111dd3	0.14171533
178	0xbd920dc6	-0.07131533
179	0x3d9a3b31	0.07530821
180	0xbdb0c8f9	-0.086320825
181	0xba175aa3	-0.0005773699
182	0x3e04cca2	0.12968686
183	0x3db1a62d	0.08674274
184	0x3e2d8d46	0.16948423
185	0x3daf3dad	0.085566856
186	0xbd78712a	-0.060654797
187	0x3e1c6db6	0.15276226
188	0x3e0fd54e	0.14046213
189	0x3d92f75e	0.07176088
190	0x3e5fa245	0.21839245
191	0xbdb2ce07	-0.08730703
192	0xbd01f1d4	-0.031724766
193	0x3cb96085	0.022629032
194	0xbdf270fb	-0.118379556
195	0xbd97d485	-0.07413582
196	0x3d11bf01	0.035582546
197	0x3e1ef599	0.15523376
198	0x3e19cbb6	0.15019116
199	0xbc19a809	-0.009378442
200	0x3df6b488	0.12046152
201	0x3d5f3744	0.054496065
202	0x3e0d9315	0.13825639
203	0xbde2bc68	-0.11071092
204	0xbc998253	-0.018738901
205	0xbdb9cab4	-0.09071866
206	0xbccb3813	-0.024807012
207	0x3cebb6c5	0.028773675
208	0xbd932e88	-0.071866095
209	0x3bf62269	0.007511426
210	0x3db05e12	0.086116925
211	0xbd228861	-0.039680842
212	0x3bc7c12e	0.006096027
213	0xbd4bf281	-0.049791817
214	0x3bd4d620	0.0064952523
215	0x3cfc6491	0.030809673
216	0xbcb96667	-0.022631837
217	0x3df23ba8	0.11827785
218	0xbd7b4010	-0.06134039
219	0x3d0768ae	0.033058815
220	0x3dab6465	0.08368758
221	0x3d7669a9	0.06015936
222	0x3d1ee912	0.038796492
223	0x3de8a2f4	0.11359206
224	0x3e259667	0.16170655
225	0x3dd2bc79	0.102898546
226	0xbcf55a34	-0.029950239
227	0xbd91b427	-0.071144395
228	0xbdd0961d	-0.10184882
229	0x3d2fecac	0.042950317
230	0x3d229061	0.03968847
231	0x3d7cb65a	0.06169734
232	0xbe061ab2	-0.13096121
233	0x3dcbcadb	0.09950801
234	0xbd992a96	-0.07478826
235	0x3dfe468b	0.12415799
236	0xbdcb4ede	-0.09927152
237	0x3e0f5520	0.13997316
238	0x3cb0c953	0.021580374
239	0xbd1662db	-0.03671537
240	0x3d94a815	0.072586216
241	0xbdcc1466	-0.09964828
242	0xbdb22631	-0.08698691
243	0xbe196993	-0.1498168
244	0xbdad96a8	-0.08476001
245	0xbe1f9589	-0.15584387
246	0x3d2feb6a	0.042949118
247	0x3e0fa09c	0.14026111
248	0xbdd3aaaf	-0.1033529
249	0x3d92f1cc	0.07175025
250	0x3d553f5c	0.052062377
251	0x3af1e860	0.0018456094
252	0xbc2a9f70	-0.010413989
253	0xbe0a491c	-0.13504452
254	0xbd833ef7	-0.06408494
255	0x3c056c4a	0.008143494

layers.2.bias f4 [23]
0	0xbd319978	-0.04335925
1	0x3e5861d9	0.21131076
2	0x3d96b936	0.07359545
3	0x3e5d83e2	0.2163234
4	0x3d6a6cde	0.05723273
5	0x3d826603	0.063671134
6	0xbdd2ea97	-0.10298651
7	0xbda9a38c	-0.08283147
8	0x3e2523fb	0.16127007
9	0x3d05fecd	0.0327137
10	0x3d8b6f8e	0.06808387
11	0xbe0c52ff	-0.13703535
12	0xbd53e4e9	-0.051731978
13	0xbd398806	-0.045295738
14	0x3d84f4ec	0.06492028
15	0xbcef3a16	-0.029202502
16	0xbddd8316	-0.10816018
17	0x3db8d058	0.090241134
18	0x3dc082d6	0.09399955
19	0x3d36dc3b	0.044643622
20	0x3dff9f99	0.12481613
21	0xbd3d4556	-0.046208702
22	0xbdd9e452	-0.10639252

layers.4.weight f4 [1, 23]
0	0xbd697d19	-0.057004068
1	0x3da53424	0.08066586
2	0xbd05d5dd	-0.03267466
3	0x3e462328	0.19349349
4	0x3e4ecc65	0.20195158
5	0xbd896cee	-0.0671023
6	0xbe1ad204	-0.15119177
7	0xbe28aa0f	-0.16471122
8	0x3e712414	0.23548919
9	0xbdf67c7a	-0.12035461
10	0xbd0747ba	-0.03302739
11	0xbe3d0600	-0.1845932
12	0xbe411047	-0.18853866
13	0xbe366fca	-0.17816082
14	0x3e3aa971	0.182287
15	0xbe18bc98	-0.14915693
16	0xbe0cbd2c	-0.13744038
17	0xbddca4b7	-0.10773604
18	0x3e019bc8	0.12657082
19	0x3e27a29d	0.16370626
20	0x3dc59df1	0.096492656
21	0x3e6dfd88	0.23241246
22	0xbe3b057c	-0.18263811
