DNN/TrainedModel.pt (torch, 16535 bytes, 5 tensors)

layers.0.weight f4 [64, 23]
0	0xbd52cc06	-0.051464103
1	0x3e479538	0.19490516
2	0xbe2c5283	-0.1682835
3	0xbe081477	-0.13289057
4	0x3e4b6dde	0.1986613
5	0x3e3df8be	0.18551919
6	0xbe2265ab	-0.15859096
7	0xbe02a6ff	-0.12759016
8	0x3d5373ae	0.051623993
9	0x3d6d812d	0.05798452
10	0xbdbcf0f1	-0.092256434
11	0x3d0ab8c4	0.033867612
12	0xbe21df0c	-0.15807742
13	0xbd74a9fa	-0.059732415
14	0x3e2a00e2	0.166019
15	0x3e31bc1b	0.17356913
16	0xbdd717ba	-0.10502572
17	0x3e495ca1	0.19664241
18	0x3da0321d	0.07822058
19	0xbe0c4fc1	-0.13702299
20	0x3e11ec7f	0.14250372
21	0xbd543f33	-0.051818084
22	0x3bf2f8d0	0.0074149147
23	0xbdb44eb2	-0.088040724
24	0x3e2a54e3	0.16633944
25	0x3ddabe04	0.10680774
26	0xbdbceff8	-0.09225458
27	0xbe0591ea	-0.13043943
28	0x3d582e34	0.052778438
29	0x3daed7fa	0.08537288
30	0xbd8f222e	-0.06988941
31	0xbe25b025	-0.16180475
32	0x3dac255d	0.08405564
33	0x3d3a386f	0.045463976
34	0xbd5b3b76	-0.053523503
35	0x3e4b35cb	0.19844739
36	0xbd11656a	-0.035497107
37	0x3ccb7965	0.024838159
38	0x3e40b011	0.18817164
39	0x3e44db8f	0.1922438
40	0xbbe5073e	-0.0069893887
41	0xbdf3ca02	-0.11903764
42	0x3d7b02f7	0.061282124
43	0x3e3113f0	0.17292762
44	0xbd1c29a5	-0.038125653
45	0xbd8133bd	-0.063086964
46	0x3b8e5eaa	0.004344781
47	0x3e03cdba	0.12871447
48	0xbe05e1c7	-0.13074408
49	0xbd0603df	-0.032718536
50	0xbe377bc4	-0.17918307
51	0x3d39b193	0.045335364
52	0x3c822b9b	0.015889933
53	0x3c1f5ae6	0.009726262
54	0xbe1219c3	-0.1426764
55	0x3d74a7b2	0.05973024
56	0x3e0cc9e6	0.13748893
57	0xbd8c8d5a	-0.06862898
58	0xbe455ce3	-0.19273715
59	0xbdf0ea64	-0.117634565
60	0x3dee0475	0.11621944
61	0x3d6fd76e	0.05855506
62	0x3e3dfcd6	0.1855348
63	0x3cb1b085	0.021690616
64	0xbe3b2848	-0.18277085
65	0x3d142328	0.03616634
66	0xbe27b2c0	-0.16376781
67	0x3d7ad246	0.06123569
68	0x3e1f9167	0.1558281
69	0x3da9e50c	0.0829564
70	0xbe2240b5	-0.15844996
71	0xbdad3bda	-0.084586814
72	0xbe197a05	-0.14987953
73	0xbe399dc0	-0.18126583
74	0x3e029b2c	0.12754506
75	0xbdb2359f	-0.08701634
76	0x3d5762b7	0.052584376
77	0x3e3f93aa	0.18708673
78	0xbe32ea88	-0.17472279
79	0x3ddbb222	0.107273355
80	0x3d8b766f	0.06809699
81	0x3e03fe18	0.12889898
82	0xbe4b02fe	-0.1982536
83	0x3d3d0633	0.04614849
84	0x3e2a4cb2	0.1663082
85	0x3dc3dfab	0.09564146
86	0xbd2883bc	-0.041141257
87	0x3e56c420	0.20973253
88	0x3deb38df	0.11485457
89	0xbe4a6d89	-0.19768347
90	0x3e32f0a2	0.17474607
91	0xbe543124	-0.2072187
92	0x3dfc0bd5	0.12306944
93	0xbe20a923	-0.1568952
94	0xbdc5fd94	-0.09667507
95	0xbe4e3cce	-0.20140383
96	0x3e295e0b	0.16539781
97	0x3e2390a6	0.15973148
98	0xbe4f5286	-0.20246324
99	0xbe23be55	-0.15990575
100	0x3e341e3e	0.17589661
101	0xbe1cc141	-0.15308096
102	0xbd9605b3	-0.07325306
103	0x3bcc932d	0.0062431307
104	0xbb5bf60c	-0.0033563403
105	0xbd0d34b4	-0.03447409
106	0x3d7d39fe	0.061822884
107	0xbdf0d905	-0.11760143
108	0x3d80201b	0.06256124
109	0xbe183f5c	-0.1486792
110	0xbe42e4e6	-0.1903263
111	0x3d9006ac	0.070325226
112	0x3df9f6bb	0.12205263
113	0x3dcd607d	0.10028169
114	0x3cb36b70	0.021901816
115	0x3dadd152	0.0848719
116	0xbdfca723	-0.12336566
117	0xbe173c47	-0.14769088
118	0x3daa4746	0.083143756
119	0x3deba416	0.11505906
120	0x3e38d2cb	0.18049161
121	0x3d72a8bc	0.05924295
122	0xbd12e970	-0.035867155
123	0xbc1bd0b0	-0.009510204
124	0x3e079941	0.13242055
125	0xbe3e86a8	-0.18606055
126	0xbcfb1138	-0.030647859
127	0xbd7d39e0	-0.061822772
128	0xbdfd268d	-0.123608686
129	0xbd8d1a60	-0.06889796
130	0xbda2e224	-0.07953289
131	0xbce80380	-0.028321981
132	0xbdebd077	-0.11514371
133	0xbd820c24	-0.06349972
134	0x3c78c430	0.0151834935
135	0xbda1a392	-0.07892527
136	0xbe083724	-0.13302284
137	0xbe068912	-0.13138226
138	0xbe09e938	-0.13467872
139	0x3e3b3410	0.18281579
140	0xbdeb4aa0	-0.11488843
141	0xbdc476fc	-0.09593007
142	0x3d7bb168	0.061448485
143	0xbdfa3454	-0.12217012
144	0xbcd501c2	-0.026001815
145	0x3e49feda	0.19726124
146	0x3e40cc0e	0.1882784
147	0xbe5bfa4c	-0.214822
148	0xbe073e57	-0.13207375
149	0x3ce4628b	0.02787902
150	0xbe537099	-0.20648421
151	0xbe2dc9e6	-0.1697155
152	0xbe23f34d	-0.1601078
153	0xbe29b8a5	-0.16574343
154	0x3cf0bca6	0.02938683
155	0x3dd71e40	0.105038166
156	0x3dc5d59d	0.09659884
157	0x3e075ecc	0.13219756
158	0xbd69e90a	-0.05710701
159	0xbcd9328d	-0.026513362
160	0x3e46cc07	0.19413768
161	0x3d2cf0d4	0.04222186
162	0xbe23608b	-0.15954797
163	0xbd40586c	-0.046959326
164	0xbd9c7334	-0.07639161
165	0xbaac4180	-0.0013142079
166	0xbe2965ea	-0.16542783
167	0xbe4a4d2c	-0.19756001
168	0x3dcb06e6	0.09913425
169	0xbe030f47	-0.12798797
170	0x3de7911a	0.11306973
171	0xbe0dfb78	-0.13865459
172	0xbe11ce56	-0.14238867
173	0x3dcac2ca	0.09900434
174	0xbb798440	-0.0038073212
175	0x3d25e9f8	0.040506333
176	0xbcdbdef0	-0.026839703
177	0xbe3edd10	-0.18639016
178	0x3da890fe	0.0823078
179	0xbde890cb	-0.11355742
180	0xbdfcae97	-0.12337988
181	0xbe2327af	-0.15933107
182	0x3e249259	0.16071452
183	0xbe09b0e6	-0.13446388
184	0xbc17f060	-0.009273618
185	0x3e448feb	0.19195525
186	0x3b9e5f60	0.004833147
187	0x3de5e626	0.11225538
188	0xbe22e6ca	-0.15908352
189	0xbe367874	-0.17819387
190	0xbdb99493	-0.090615414
191	0xbe317dc7	-0.17333136
192	0xbe2fae54	-0.17156345
193	0x3d0659f4	0.03280063
194	0xbd8b7308	-0.0680905
195	0x3dc62c12	0.096763745
196	0x3e4ca191	0.19983508
197	0xbde22efe	-0.11044119
198	0xbe4b2b3c	-0.19840711
199	0xbe2afe6c	-0.16698617
200	0xbe072bfa	-0.1320037
201	0xbe113268	-0.14179385
202	0xbe155680	-0.14583778
203	0x3e3ee305	0.18641289
204	0xbdc24c01	-0.09487153
205	0x3dd3af06	0.103361174
206	0xbcd9e1d0	-0.026596934
207	0x3e08d8f5	0.13364013
208	0xbe537416	-0.20649752
209	0xbcd5cd78	-0.026098952
210	0x3e441d9d	0.19151922
211	0xbe2c24b9	-0.16810884
212	0xbd74d24d	-0.05977087
213	0xbe0d30d0	-0.13788152
214	0xbe4cf0df	-0.2001376
215	0x3da2a895	0.07942311
216	0xbe4d9d7c	-0.20079607
217	0x3ada7205	0.001666606
218	0x3dacc409	0.08435828
219	0x3e468603	0.19387059
220	0xbe38e98d	-0.18057843
221	0xbba1b0d3	-0.004934409
222	0xbe13c161	-0.14429237
223	0xbbbf9089	-0.0058460874
224	0xbe15810b	-0.14600007
225	0x3e10589b	0.140963
226	0x3e48f2f5	0.19623931
227	0x3d00d10b	0.03144936
228	0x3e24e497	0.16102825
229	0xbe4aff82	-0.19824031
230	0x3e389c11	0.18028285
231	0x3c1629a0	0.009165198
232	0x3e54632d	0.20740958
233	0x3e37a2a9	0.17933144
234	0xbd41d8f4	-0.047326043
235	0x3c051f0b	0.008125077
236	0xbd5f75dd	-0.054555763
237	0x3e365d21	0.17808963
238	0xbe0604d8	-0.13087785
239	0xbda746b4	-0.081677824
240	0x3e02c113	0.12768964
241	0x3e5ae9fe	0.21378323
242	0x3e17aa66	0.14811096
243	0xbcdd0591	-0.026980193
244	0x3e09a461	0.13441612
245	0x3dbf5ea9	0.09344227
246	0xbdc6c199	-0.097048946
247	0xbe150840	-0.14553928
248	0xbdb34ef3	-0.08755293
249	0x3d069b3c	0.032862887
250	0xbd5b64a5	-0.05356278
251	0xbd9fb6bc	-0.07798526
252	0xbe1fb4d4	-0.15596324
253	0xbe1e9335	-0.15485843
254	0x3db3f0e7	0.08786183
255	0xbbdf220e	-0.0068094796

layers.0.bias f4 [64]
0	0x3d8ad583	0.067790054
1	0xbd43ce86	-0.047804378
2	0xbe0426f7	-0.12905489
3	0xbd9e7b95	-0.07738415
4	0x3cce0bb7	0.02515207
5	0x3acdf680	0.0015713722
6	0xbb8648cc	-0.0040980335
7	0x3e27b969	0.16379322
8	0xbd643584	-0.0557151
9	0xbde239c8	-0.11046177
10	0x3d7eadc7	0.062177446
11	0xbe2dc6ea	-0.16970411
12	0x3d826db8	0.063685834
13	0x3e6f6c46	0.23381147
14	0xbc075460	-0.008259863
15	0x3e51c8e5	0.20486791
16	0x3e4104b3	0.18849449
17	0xbd7fef3c	-0.06248401
18	0x3e64b517	0.22334705
19	0xbdeab94c	-0.11461124
20	0x3c54f24f	0.012997224
21	0x3dd32360	0.103094816
22	0xbe319b79	-0.17344464
23	0x3e41a18d	0.18909283
24	0xbce1283d	-0.027485007
25	0x3e607a99	0.21921767
26	0xbe277e72	-0.16356829
27	0xbdea9d1d	-0.11455748
28	0x3df7bdba	0.12096734
29	0xbe2dfb15	-0.16990311
30	0x3d905dff	0.07049178
31	0xbe2996ed	-0.1656148
32	0xbba14093	-0.004921028
33	0x3cc02fcc	0.023460291
34	0x3dca151e	0.09867309
35	0x3d19285b	0.037392
36	0xbdf14755	-0.11781184
37	0x3e795d3e	0.24351975
38	0x3e3a2cdf	0.1818118
39	0x3c383375	0.011242737
40	0x3ddf19c1	0.10893584
41	0x3dc5784a	0.09642084
42	0x3e07d663	0.13265376
43	0xbdabaad1	-0.0838219
44	0x3e1430cb	0.14471738
45	0x3e70a049	0.23498644
46	0x3e60358f	0.21895431
47	0x3dc5fb52	0.09667076
48	0x3e366fb3	0.17816047
49	0x3dfe6d37	0.12423175
50	0x3e1e8a63	0.15482478
51	0xbd6414a0	-0.055683732
52	0x3e2ec85b	0.17068617
53	0x3e0f3fff	0.13989256
54	0x3e5e5851	0.21713378
55	0xbdba5b03	-0.0909939
56	0x3e059e91	0.1304877
57	0x3dc6a865	0.097000875
58	0x3e5fab27	0.21842633
59	0x3e398bcb	0.18119733
60	0x3e3661fa	0.17810813
61	0x3df507d2	0.11964382
62	0x3e18f9c6	0.14939031
63	0xbde2ebff	-0.11080169

layers.2.weight f4 [32, 64]
0	0x3dc1c6c8	0.09461743
1	0x39b2a600	0.00034074485
2	0xbc423e60	-0.011855692
3	0xbdd651aa	-0.10464795
4	0x3d1f8fa4	0.038955346
5	0xbd60bfa0	-0.054870248
6	0xbcacaa80	-0.021077394
7	0x3c1998c0	0.009374797
8	0x3d45ed30	0.048321903
9	0xbcc3ff98	-0.023925588
10	0xbd804520	-0.062631845
11	0x3a8fc880	0.0010969788
12	0xbde1a9c4	-0.11018708
13	0xbdea10ce	-0.114289865
14	0x3df67698	0.12034339
15	0xbdd11fd4	-0.10211149
16	0x3d597970	0.053094327
17	0x3dbb7df4	0.09154883
18	0xbdde53e4	-0.108558446
19	0x3d0cf38c	0.034411952
20	0xbd85de6c	-0.06536564
21	0xbd219dbc	-0.039457068
22	0xbca758c8	-0.020428076
23	0x3d4ae888	0.049538165
24	0xbd6e462c	-0.05817239
25	0x3db748ea	0.08949454
26	0xbc895e08	-0.01676847
27	0xbdb23c50	-0.0870291
28	0xbd361500	-0.04445362
29	0x3dea9c96	0.11455648
30	0xbdfadb7a	-0.12248893
31	0x3d805c14	0.062675625
32	0xbb14f0c0	-0.0022726506
33	0xbdfe961a	-0.12430973
34	0x3cf61cb8	0.030042991
35	0xbd520d74	-0.05128236
36	0x3cb58298	0.022156999
37	0x3d1836dc	0.037161693
38	0xbd09e774	-0.033667997
39	0xbda56430	-0.0807575
40	0x3de9fbee	0.11425005
41	0xbd649d14	-0.055813864
42	0x3d99bf96	0.07507245
43	0xbcad44f0	-0.021151036
44	0xbc4db1a0	-0.012554556
45	0x3b452900	0.0030084252
46	0x3c211e20	0.0098338425
47	0xbcc84d98	-0.024451062
48	0xbd76c2b4	-0.060244277
49	0xbda90558	-0.08252972
50	0x3dcc36c2	0.09971382
51	0xbde4677a	-0.11152549
52	0xbd24753c	-0.040150866
53	0xbdbc0c28	-0.09182006
54	0x3cc1bcf0	0.023649663
55	0xbd04d330	-0.032427967
56	0x3d225824	0.03963484
57	0xbae76900	-0.0017655194
58	0xbbb92b20	-0.005650893
59	0xbdac1faa	-0.08404477
60	0x39b23e00	0.00033997
61	0x3db656e2	0.0890329
62	0xbd4df7e0	-0.05028522
63	0xbd4f7a50	-0.050653756
64	0xbd296062	-0.041351683
65	0x3d408688	0.0470033
66	0xbd984e26	-0.07436781
67	0x3dcbd090	0.099518895
68	0xbda793a8	-0.0818246
69	0x3ce2b730	0.027675241
70	0x3d471664	0.048605338
71	0xbd477810	-0.048698485
72	0xbcdb4250	-0.026765019
73	0xbdb00c68	-0.08596116
74	0x3d743a78	0.059626073
75	0xbdcbbcf5	-0.0994815
76	0x3dd00a56	0.101582214
77	0xbd91f17a	-0.07126136
78	0xbd184d1c	-0.037182912
79	0x3cd004ee	0.025392976
80	0x3d46b687	0.048513915
81	0x3ddf1baa	0.108939484
82	0xbd2b0bca	-0.04175929
83	0xbc923de9	-0.017851787
84	0x3c971236	0.0184413
85	0xbdb85236	-0.090000555
86	0xbbe189ce	-0.0068828827
87	0x3d9bf625	0.07615308
88	0x3e0488ed	0.12942858
89	0x3dd12cfa	0.10213657
90	0xbd87eaa8	-0.06636554
91	0xbc52a7a2	-0.01285735
92	0x3dc4b308	0.0960446
93	0xbc18c360	-0.009323925
94	0x3dc777f0	0.09739673
95	0x3de5fc79	0.11229796
96	0x3deb5579	0.11490912
97	0x3deb828d	0.1149951
98	0xbd91a650	-0.071118
99	0x3c470dd7	0.012149296
100	0xbdd057ba	-0.101729825
101	0xbd65fc9a	-0.056149103
102	0x3cef9da2	0.02924997
103	0xbcc7bfca	-0.024383444
104	0x3e129d52	0.14317825
105	0xbd047f11	-0.032347742
106	0x3d987a95	0.07445256
107	0x3df7f566	0.12107353
108	0xbd458e6d	-0.04823153
109	0x3e1d121e	0.15338942
110	0x3df0f8b9	0.1176619
111	0x3dacb419	0.084327884
112	0x3db05773	0.086104296
113	0xbdd641bf	-0.10461759
114	0xbdc80a91	-0.097676404
115	0xbd9d1e87	-0.07671838
116	0xbdb430a9	-0.08798344
117	0xbd161e48	-0.036649972
118	0x3d0aea49	0.033914838
119	0x3e0461e5	0.12927969
120	0xbd960cd8	-0.073266685
121	0x3e15c3c4	0.1462546
122	0x3d0f7406	0.035022758
123	0xbd4f8634	-0.050665095
124	0x3dcff1d7	0.10153549
125	0x3d926d96	0.07149808
126	0x3d388067	0.04504433
127	0x3cb3f068	0.02196522
128	0xbd0d8ed8	-0.034560055
129	0x3adfcc6b	0.0017074471
130	0x3db4df44	0.08831647
131	0x3d177b3d	0.036982764
132	0x3decaf59	0.115568824
133	0x3d480f34	0.048842624
134	0xbd13d762	-0.036094077
135	0x3da97816	0.08274858
136	0x3cc5fbe8	0.02416797
137	0x3cb392d1	0.021920593
138	0x3d2c6e41	0.042097334
139	0x3d96ccc3	0.07363274
140	0x3d756a5d	0.05991589
141	0xbb88d519	-0.004175794
142	0x3d27e3c0	0.040988684
143	0xbe0a0d88	-0.13481724
144	0xbdb08640	-0.08619356
145	0xbd847346	-0.06467299
146	0xbdb15d74	-0.08660403
147	0xbdabb00d	-0.083831884
148	0xbd6d2aaf	-0.057902034
149	0x3dd3a252	0.103336945
150	0xbd25cb4b	-0.04047708
151	0xbb8355b4	-0.0040080193
152	0x3d4e2558	0.050328583
153	0x3dbb6715	0.09150521
154	0xbd14900e	-0.036270194
155	0x3c90eeb6	0.017691951
156	0x3bbbedc0	0.005735129
157	0x3c140570	0.0090344995
158	0x3b76bea8	0.003765026
159	0x3db8f04f	0.0903021
160	0x3d973147	0.07382446
161	0x3d461596	0.04836043
162	0xbe04feba	-0.12987795
163	0xbc82d6e2	-0.015971605
164	0x3dc47f8a	0.09594639
165	0x3d772b81	0.060344223
166	0xbdba4801	-0.09095765
167	0x3d592ed2	0.053023167
168	0x3cfe844a	0.03106894
169	0xbc92d5e4	-0.017924257
170	0x3d3ad3fb	0.045612317
171	0x3dd07bad	0.10179839
172	0xbdcf3f91	-0.10119546
173	0xbcc7e9e1	-0.024403514
174	0x3d9e1a99	0.07719917
175	0x3d663267	0.05620041
176	0x3dcf1c60	0.10112834
177	0x3d7625e5	0.060094733
178	0xbd0921ff	-0.033479687
179	0xbdf8ad84	-0.121424705
180	0xbb6dbce8	-0.0036275927
181	0x3a9fc69e	0.001218993
182	0xbdca5f8e	-0.09881507
183	0x3d67eaa0	0.05662024
184	0xbdb607e0	-0.08888221
185	0x3d91591a	0.07097073
186	0xbccba9dd	-0.02486127
187	0xbc368902	-0.011141064
188	0x3d3b5f0c	0.04574494
189	0x3d206d9b	0.039167028
190	0xbc479caf	-0.012183352
191	0x3d8dc3d6	0.06922118
192	0xbd0e6000	-0.03475952
193	0x3dc3e39c	0.095648974
194	0xbcfd3762	-0.030910198
195	0x3cdc1df1	0.026869746
196	0xbd7ebb59	-0.062190387
197	0x3d43b14c	0.047776505
198	0xbda281fa	-0.07934947
199	0xbddfaae4	-0.10921267
200	0xbd8b143c	-0.06790969
201	0x3d8c3d86	0.06847672
202	0x3b771183	0.0037699647
203	0x3cdf140d	0.02723124
204	0xbc94c24d	-0.018159056
205	0x3dac0b0b	0.08400544
206	0xbdb8b560	-0.090189695
207	0x3e1214ce	0.14265749
208	0x3e07169a	0.13192216
209	0xbd79a318	-0.060946554
210	0x3d3f5aea	0.04671756
211	0x3d150b1d	0.03638755
212	0xbd3ccd8f	-0.046094473
213	0xbd7ec4f4	-0.062199548
214	0x3b09062f	0.0020908227
215	0x3da9b26d	0.08285985
216	0x3e13ed36	0.14445958
217	0x3d84a5c0	0.06476927
218	0x3d998fbf	0.074981205
219	0xbd77d5c7	-0.06050661
220	0x3dc34c58	0.09536046
221	0xbc1ee830	-0.0096989125
222	0xbdb2cace	-0.08730088
223	0xbdcd790f	-0.10032856
224	0x3dd7bfd1	0.10534633
225	0xbc8200d6	-0.01586954
226	0x3e39a9b2	0.1813114
227	0xbd807758	-0.06272763
228	0xbdd2974a	-0.10282762
229	0x3db0e929	0.08638222
230	0x3dfa396b	0.12217983
231	0x3db6aaea	0.08919318
232	0x3e0e9d65	0.13927229
233	0xbd4eb3e3	-0.050464522
234	0x3d463188	0.04838708
235	0xbd90d2a8	-0.070714295
236	0x3e1484c9	0.14503779
237	0x3baa2260	0.005192086
238	0xbd0c4a42	-0.034250505
239	0x3b7a045a	0.0038149566
240	0x3e08f6dc	0.1337542
241	0x3d469751	0.04848415
242	0xbd8d6075	-0.06903163
243	0x3d8456b9	0.064618535
244	0xbdcdf09b	-0.100556575
245	0x3dcd6159	0.10028333
246	0x3cf06903	0.029346948
247	0xbd23614b	-0.039887708
248	0x3d07c0d8	0.033142895
249	0xbc838fa4	-0.016059704
250	0x3d7d8fc8	0.0619047
251	0xbd27d7d7	-0.040977325
252	0xbb3f0128	-0.0029144976
253	0x3db78196	0.089602634
254	0x3cb845b0	0.022494167
255	0xbd562204	-0.052278534

layers.2.bias f4 [32]
0	0xbd202af8	-0.03910348
1	0x3dcf90c5	0.101350345
2	0x3d10141f	0.03517544
3	0x3d1e5b1d	0.03866111
4	0x3d4d9682	0.050192364
5	0x3d00a2a9	0.031405125
6	0xbcbd9890	-0.023144037
7	0xbc1d79ca	-0.009611556
8	0x3d114083	0.035461914
9	0xbc83bf1c	-0.016082339
10	0xbd8d1477	-0.06888669
11	0x3dd866d2	0.105664864
12	0x3dfe88b4	0.12428418
13	0x3d8d83d4	0.0690991
14	0x3ce91858	0.02845399
15	0xbd2e7d90	-0.042600214
16	0xbcf434e1	-0.02981037
17	0x3d2d0062	0.042236693
18	0xbd9d1b90	-0.07671273
19	0xba983f29	-0.0011615503
20	0x3c2c4cb6	0.010516336
21	0x3d9e4ccf	0.07729494
22	0x3d96f499	0.07370872
23	0xbd70617e	-0.058686726
24	0xbda4a5ef	-0.08039462
25	0x3b6d8e0e	0.0036248001
26	0x3afe0282	0.001937941
27	0xbca4a576	-0.02009843
28	0xbe03ceeb	-0.12871902
29	0x3d6381ff	0.055543896
30	0x3d9462a8	0.0724538
31	0x3d611a66	0.054956816

layers.4.weight f4 [1, 32]
0	0xbd3e0788	-0.0463939
1	0x3d423323	0.04741205
2	0xbd9baf6b	-0.07601818
3	0x3d601f11	0.054717127
4	0xbdce8be9	-0.100852795
5	0xbc962afc	-0.018331043
6	0x3de38372	0.111090556
7	0x3d9a7264	0.075413495
8	0xbd58737a	-0.052844502
9	0x3dc9fdec	0.09862885
10	0xbc9ef469	-0.019403653
11	0xbcd1f9d0	-0.025631815
12	0x3e131e6a	0.14367071
13	0xbe283693	-0.16427068
14	0xbdc730e5	-0.09726123
15	0xbdd9cf75	-0.106352724
16	0x3d9c6b7d	0.07637689
17	0x3de28de6	0.11062221
18	0x3e0b1220	0.13581133
19	0xbd35b658	-0.04436335
20	0xbdc9e10e	-0.09857379
21	0xbd676fd1	-0.05650312
22	0xbd8a507e	-0.06753634
23	0xbdf3fe17	-0.11913698
24	0x3dde5ed7	0.10857933
25	0x3e2e077f	0.16995047
26	0xbe03af1b	-0.12859766
27	0xbda794fb	-0.08182713
28	0xbd464d9d	-0.04841386
29	0x3e05e16c	0.13074273
30	0xbdcf18dd	-0.10112164
31	0x3ddb9315	0.10721413
