DNN/TrainedModel.pt (torch, 15255 bytes, 5 tensors)

layers.0.weight f4 [64, 18]
0	0xbe077a13	-0.13230161
1	0x3dde245b	0.10846778
2	0x3e1c75e4	0.15279347
3	0x3d688dd6	0.05677589
4	0x3c1843fa	0.009293551
5	0x3e2cb42b	0.16865604
6	0xbd80a470	-0.06281364
7	0xbe6036ef	-0.21895956
8	0x3e5d5802	0.21615604
9	0x3d1ffdae	0.039060287
10	0x3e1edda9	0.15514244
11	0xbdfd8357	-0.12378567
12	0xbe2077d6	-0.15670714
13	0x3e0b78fc	0.1362037
14	0x3dc80779	0.0976705
15	0xbd3e8e49	-0.046522412
16	0x3d96b6d6	0.07359092
17	0xbc1eb5a2	-0.009686859
18	0x3d82d332	0.063879386
19	0xbe35ee40	-0.17766666
20	0x3e737caf	0.23778032
21	0x3e4b9cbd	0.1988401
22	0x3d5a5ece	0.05331307
23	0xbe274738	-0.16335762
24	0xbd559709	-0.05214599
25	0x3d8194c7	0.06327205
26	0x3defdf9a	0.117125705
27	0xbe2c0dec	-0.16802186
28	0xbe4c6bc8	-0.1996299
29	0x3d40cd54	0.047070816
30	0x3b6e0959	0.003632149
31	0xbdb49ec8	-0.088193476
32	0x3e1232fe	0.14277264
33	0xbe328c80	-0.17436409
34	0x3dcb003e	0.099121556
35	0x3e7762fc	0.24158853
36	0xbe2833a4	-0.1642595
37	0xbe6fa843	-0.2340403
38	0x3d95d9c2	0.07316925
39	0xbe02e934	-0.12784272
40	0x3e07c31f	0.13258027
41	0xbe34ca19	-0.17655219
42	0x3de374fe	0.11106299
43	0xbe478136	-0.19482884
44	0xbd2e9a48	-0.042627603
45	0xbcaf0d98	-0.021368787
46	0xbdad93d0	-0.084754586
47	0x3d3aa89c	0.045570955
48	0xbe155b90	-0.1458571
49	0x3d6c8df4	0.057752565
50	0x3c7a7bb0	0.015288278
51	0x3d8bf27a	0.06833358
52	0x3e12e269	0.14344181
53	0xbe5cdf0b	-0.21569459
54	0xbdd1c80a	-0.102432325
55	0xbd948bdd	-0.07253239
56	0x3e1cac6a	0.15300146
57	0xbbc531c7	-0.006017897
58	0xbde2624c	-0.11053905
59	0x3e5ca67f	0.21547888
60	0x3c716b19	0.014735007
61	0xbd8497d4	-0.064742714
62	0x3e4bf046	0.19915876
63	0x3c47f430	0.012204215
64	0xbbaa323d	-0.005193977
65	0x3e4c7317	0.19965778
66	0xbe62c495	-0.22145303
67	0x3e03f092	0.12884739
68	0x3de7d6fa	0.113203004
69	0xb88f0666	-6.819963e-05
70	0x3e3112b0	0.17292285
71	0x3e475ea6	0.194697
72	0xbe2944ad	-0.16530104
73	0xbd77864d	-0.060430814
74	0x3e05d62e	0.13069984
75	0x3e2b1f25	0.167111
76	0x3e31ea57	0.1737455
77	0x3e2a066d	0.16604014
78	0x3dbf3f43	0.09338238
79	0x3e564d50	0.2092793
80	0xbd0a3b0d	-0.03374772
81	0x3e6c46c3	0.23073868
82	0xbe108b84	-0.14115721
83	0xbc1c8fd2	-0.009555774
84	0x3e811ff1	0.25219682
85	0x3e52bd2e	0.20579979
86	0x3e5526a0	0.20815516
87	0xbded211d	-0.115785815
88	0xbd6e3a88	-0.05816129
89	0x3e3c213f	0.18372057
90	0x3d04fd64	0.032468215
91	0x3daa92af	0.08328759
92	0xbe36e98f	-0.17862533
93	0x3d4fb7f8	0.050712556
94	0x3e8b4b3a	0.2720583
95	0x3d1e5181	0.038651947
96	0x3e7f96d4	0.2495988
97	0x3e8322fa	0.25612622
98	0xbdb6a4ed	-0.08918176
99	0xbd3cb21f	-0.046068307
100	0xbe0a60c6	-0.13513479
101	0xbcb725df	-0.022356926
102	0xbd871bc4	-0.06597093
103	0xbd36f68b	-0.044668715
104	0x3e3ae96b	0.18253104
105	0x3d79198c	0.06081538
106	0xbded8f1a	-0.1159956
107	0x3e656760	0.22402716
108	0xbc2f3525	-0.010693823
109	0xbd15801c	-0.036499128
110	0x3e0432a9	0.1290995
111	0xbd50c998	-0.050973505
112	0x3de80179	0.11328406
113	0x3d91b888	0.07115275
114	0xbd4b15e4	-0.049581423
115	0x3e4e7ec7	0.20165549
116	0xbe5f0eb2	-0.2178295
117	0xbd7a1ff7	-0.06106564
118	0x3e3c05f8	0.18361652
119	0x3e17e828	0.14834654
120	0x3e75befc	0.23998636
121	0x3d78a4ca	0.06070403
122	0xbe502975	-0.20328315
123	0xbd02e955	-0.031960804
124	0x3d04e48b	0.032444518
125	0x3c91b409	0.017786043
126	0xbe090f4a	-0.13384739
127	0xbdca3986	-0.09874253
128	0x3e53d19a	0.20685425
129	0xbc83cc13	-0.016088521
130	0xbde3c5e5	-0.1112173
131	0xbc4262c8	-0.011864372
132	0x3e702774	0.2345255
133	0x3c60b557	0.01371511
134	0x3d978488	0.07398325
135	0xbc5e888c	-0.01358236
136	0x3e4b6a15	0.19864686
137	0x3e69f69f	0.22847985
138	0xbe3908af	-0.18069719
139	0x3ca41f4c	0.020034455
140	0xbe4f1156	-0.20221457
141	0xbde60686	-0.11231713
142	0x3e3b9cbd	0.1832151
143	0x3e1aed1e	0.15129516
144	0x3e0eee99	0.13958205
145	0xbe48ac62	-0.19597009
146	0xbdb018e6	-0.08598499
147	0xbe137992	-0.14401844
148	0xbe3ba22f	-0.18323587
149	0x3dffc372	0.1248845
150	0x3d13693c	0.03598903
151	0xbd5e4eac	-0.054274246
152	0x3e132a27	0.14371549
153	0xbe5310bc	-0.20611852
154	0x3e642d83	0.22282986
155	0x3d8e7e0a	0.06957634
156	0xbdec511c	-0.11538908
157	0x3e66b19b	0.22528689
158	0xbe42b33c	-0.19013685
159	0xbdc7279c	-0.09724352
160	0x3cf77f98	0.030212209
161	0xbd3e7e34	-0.046507075
162	0x3e2dd4d7	0.16975723
163	0x3dae326a	0.085057095
164	0xbd98a8e6	-0.0745409
165	0x3df2b21e	0.118503794
166	0x3e5ba0c8	0.21448052
167	0xbd899a9a	-0.06718941
168	0x3e57209f	0.21008538
169	0xbd8d9720	-0.069135904
170	0xbe06360c	-0.13106555
171	0xbe3a5778	-0.18197429
172	0x3db33725	0.08750752
173	0xbc03a8d1	-0.008035854
174	0xbe056013	-0.1302493
175	0xbe2c576b	-0.16830222
176	0x3de782ed	0.11304269
177	0xbe0e05cf	-0.13869403
178	0xbe445d4b	-0.19176213
179	0xbe53e1b7	-0.20691572
180	0xbe1d6d53	-0.15373735
181	0x3e573fc8	0.21020424
182	0xbde90f35	-0.11379854
183	0xbc8db91d	-0.017300183
184	0xbe294a9a	-0.16532364
185	0xbcce8726	-0.025210928
186	0xbdc8aeab	-0.0979894
187	0xbdfaab46	-0.12239699
188	0xbdaef2a8	-0.08542377
189	0xbc8c0eb3	-0.017096853
190	0xbdbc2419	-0.091865726
191	0xbcaa93b2	-0.02082238
192	0x3d877fab	0.066161476
193	0xbdc7e21a	-0.09759922
194	0xbc348f45	-0.011020486
195	0x3e66f25b	0.22553389
196	0x3dcf8ae3	0.101339124
197	0x3e20b577	0.15694223
198	0x3c450aa2	0.012026461
199	0x3d0d76cb	0.034537118
200	0x3e809205	0.25111404
201	0xbdbe8c10	-0.093040586
202	0x3e6078db	0.21921103
203	0xbdc086bc	-0.094006985
204	0xbdf5fb89	-0.12010867
205	0x3e87141c	0.2638253
206	0xbc55da33	-0.013052511
207	0x3e863100	0.2620926
208	0x3dd79924	0.10527256
209	0xbd91e36d	-0.07123456
210	0x3d81d7dc	0.0634
211	0x3e3b565d	0.18294664
212	0x3e0c4a9f	0.1370034
213	0x3d4116a4	0.047140732
214	0x3d565ab7	0.052332606
215	0xbd9ed479	-0.0775537
216	0x3e32cda7	0.17461263
217	0x3dde8067	0.108643346
218	0x3d793901	0.06084538
219	0x3e25239c	0.16126865
220	0xbc2c9c47	-0.010535306
221	0xbd1ac09f	-0.037781354
222	0x3db6ca21	0.08925272
223	0x3e19eb31	0.15031125
224	0xbe459233	-0.19294052
225	0x3e1174e9	0.14204754
226	0x3e0807d4	0.13284236
227	0xbe0ca211	-0.13733698
228	0x3d9f980d	0.07792673
229	0x3e7eb911	0.24875285
230	0xbe3d2a1d	-0.18473096
231	0x3e012325	0.12611063
232	0x3e65b109	0.22430815
233	0x3d6bccd6	0.057568394
234	0xbda5eaa6	-0.08101396
235	0x3e3c362f	0.18380044
236	0xbe19468c	-0.14968318
237	0x3e0d7fa3	0.13818221
238	0x3e24d8fc	0.16098398
239	0x3dad62fb	0.08466145
240	0x3e2a2cf3	0.1661871
241	0xbe44a44c	-0.192033
242	0x3d3ce9e1	0.04612148
243	0xbe4b3526	-0.19844493
244	0x3c2def1d	0.010616091
245	0xbe497dae	-0.19676849
246	0xbe3cb75e	-0.18429324
247	0xbc918043	-0.017761355
248	0xbdb2ffbd	-0.087401845
249	0xbdf7305e	-0.12069772
250	0xbd28adc2	-0.041181333
251	0x3e69ed4a	0.22844425
252	0xbe383cf6	-0.17992005
253	0x3c92f8cc	0.017940901
254	0xbe3c8932	-0.18411711
255	0x3d814346	0.063116595

layers.0.bias f4 [64]
0	0xbc9eca06	-0.019383442
1	0x3dda9995	0.10673825
2	0x3c921528	0.017832354
3	0x3e0251cb	0.12726514
4	0xbd02fe2e	-0.031980686
5	0xbe2e0f1a	-0.16997948
6	0x3e56fd3c	0.20995039
7	0xbd490568	-0.04907742
8	0xbe5ce0b3	-0.21570091
9	0xbdb81185	-0.089877166
10	0xbe0d774c	-0.1381504
11	0x3d8e1112	0.0693685
12	0xbd8155a2	-0.06315161
13	0x3e53d747	0.2068759
14	0x3d5b75be	0.053579085
15	0x3e3baa8a	0.18326774
16	0x3e02ae7a	0.1276187
17	0x3df9d6e6	0.12199192
18	0x3e652a0b	0.2237932
19	0x3e73136d	0.23737879
20	0x3d995ba6	0.07488184
21	0xbe168d63	-0.14702372
22	0x3e1b83d2	0.15187004
23	0xbc2a999b	-0.010412599
24	0xbe56d4f2	-0.2097967
25	0xbe19a1e6	-0.15003166
26	0x3e13c73f	0.14431475
27	0xbdd187d4	-0.10230985
28	0x3e755235	0.2395714
29	0x3dea3872	0.11436547
30	0xbda1ade9	-0.07894499
31	0x3e15eb30	0.14640498
32	0x3e1ada7e	0.1512241
33	0x3d987c12	0.074455395
34	0x3dd423da	0.10358401
35	0x3c191061	0.009342284
36	0x3d2207ca	0.03955821
37	0x3da81c73	0.08208551
38	0x3de76221	0.112980135
39	0x3c7d3230	0.01545386
40	0x3d67259e	0.05643236
41	0x3e0cdb1d	0.1375546
42	0x3c8ed512	0.017435584
43	0x3dba560a	0.09098442
44	0x3dcb094f	0.09913885
45	0x3e3234cb	0.17402951
46	0x3e0dabc1	0.1383505
47	0xbe58b20a	-0.21161667
48	0xbe4e71a4	-0.20160538
49	0xbd044b50	-0.032298386
50	0x3e0ab3dd	0.13545175
51	0xbc6a5339	-0.014302068
52	0xbc9351f0	-0.017983407
53	0xbe25f888	-0.16208088
54	0x3e6be4c9	0.23036493
55	0x3e2c9c79	0.16856565
56	0x3e7d9242	0.24762824
57	0x3e7f1f43	0.24914269
58	0x3e49f2fc	0.19721597
59	0xbe56fecb	-0.20995633
60	0xbe1e8aba	-0.15482607
61	0x3e5adf62	0.21374276
62	0x3e88d2ee	0.26723427
63	0x3d95a515	0.073068775

layers.2.weight f4 [32, 64]
0	0x3dda5c32	0.10662116
1	0x3cfd7157	0.030937834
2	0x3c262b40	0.010142148
3	0x3c0c735a	0.008572424
4	0x3d290501	0.041264538
5	0x3db869e2	0.090045705
6	0x3deda876	0.11604397
7	0x3dcb373a	0.09922643
8	0x3daf5b8e	0.085623845
9	0x3cb4d730	0.022075266
10	0xbc133470	-0.00898467
11	0x3cb3db37	0.021955116
12	0xbdec8469	-0.11548693
13	0x3d3a6e90	0.045515597
14	0xbd827e92	-0.063717976
15	0xbdcf9c62	-0.101372495
16	0x3cbb2dad	0.022848928
17	0xbd9195cb	-0.07108649
18	0x3ddd1765	0.10795478
19	0x3cda83d8	0.026674196
20	0xbdf8761a	-0.12131901
21	0xbd28d588	-0.041219264
22	0xbdf1d800	-0.11808777
23	0xbd47ae4c	-0.048750207
24	0x3da36d2a	0.07979806
25	0x3dff47b0	0.12464845
26	0x3b17d980	0.0023170412
27	0x3dd1e876	0.102494165
28	0xbda43e4e	-0.08019696
29	0xbdfefa40	-0.12450075
30	0x3d71fc9c	0.059078798
31	0xbcebcefe	-0.028785225
32	0x3d2f66f8	0.042822808
33	0x3c0eab00	0.008707762
34	0x3cd72b20	0.02626568
35	0x3da0d250	0.07852614
36	0xbdf52754	-0.11970392
37	0x3b5f11c0	0.003403768
38	0x3db77834	0.08958474
39	0x3d03f7c4	0.03221871
40	0xbc8db930	-0.017300218
41	0x3dcc2216	0.09967439
42	0x3d9deb9e	0.07710956
43	0x3da5e88e	0.08100997
44	0x3cd7150c	0.026255153
45	0xbcc13f70	-0.02358982
46	0xbdc40f00	-0.095731735
47	0x3de7af6e	0.113127574
48	0x3c765710	0.015035406
49	0x3baa2a80	0.0051930547
50	0xbd01a860	-0.031654716
51	0x3dc2847e	0.09497927
52	0x3bc861c0	0.0061151683
53	0x3a6e8d00	0.000909999
54	0xbd5061f4	-0.050874665
55	0xbdf0e108	-0.11761671
56	0x3b893960	0.004187748
57	0xbd33b8c2	-0.04387737
58	0xbd62b6e3	-0.055350196
59	0x3de3a411	0.111152776
60	0x3de6eb2e	0.11275326
61	0xbd3046c7	-0.04303625
62	0x3d2896e3	0.04115952
63	0xbdfe714a	-0.12423952
64	0xbe062fa2	-0.13104108
65	0x3c07a397	0.008278749
66	0xbdb92fdc	-0.090423316
67	0x3cdecb94	0.027196683
68	0x3cbcb91c	0.023037486
69	0x3dc354a5	0.09537629
70	0x3c8972b0	0.01677832
71	0xbd81ec9a	-0.06343956
72	0xbc657eb0	-0.014007255
73	0x3dcbc1a0	0.099490404
74	0xbce75c93	-0.028242385
75	0x3d2d1dd2	0.042264767
76	0x3da18942	0.07887508
77	0x3d979fff	0.07403564
78	0x3db6fe30	0.08935201
79	0xbd67bef8	-0.056578606
80	0xbd8fa40a	-0.0701371
81	0xbb01f1f5	-0.0019828056
82	0xbda6fe4d	-0.08153973
83	0x3d546666	0.051855467
84	0xbbf28d89	-0.007402126
85	0xbda4717d	-0.08029459
86	0xbde2842a	-0.110603645
87	0xbc251ed4	-0.010078151
88	0xbd09dd4c	-0.03365831
89	0x3dd75dc2	0.1051593
90	0x3d798420	0.06091702
91	0x3cd13f78	0.02554296
92	0xbdc47b67	-0.0959385
93	0xbcc611fa	-0.024178494
94	0x3d9c6e44	0.07638219
95	0x3dcb49c3	0.09926178
96	0x3dce5dc1	0.10076476
97	0x3cfdbe58	0.030974552
98	0x3dd16db3	0.102260016
99	0x3b895a54	0.004191676
100	0xbce281ab	-0.027649721
101	0xbdf97253	-0.12180009
102	0x3d9d6d41	0.07686854
103	0x3cbeacf0	0.023275822
104	0x3dc77709	0.09739501
105	0xbdb86718	-0.090040386
106	0x3d9cabd8	0.07649964
107	0x3d8482ba	0.064702466
108	0xbd5b5cdc	-0.053555354
109	0xbd09db6e	-0.03365653
110	0x3dad6161	0.08465839
111	0xbde5e091	-0.11224473
112	0x3dd2f85c	0.10301277
113	0x3de9a438	0.11408275
114	0xbc01b449	-0.0079165185
115	0x3d71aff7	0.059005704
116	0x3daa308e	0.08310042
117	0xbd486140	-0.04892087
118	0xbe070956	-0.13187155
119	0xbc4d60e3	-0.012535307
120	0xbd4d359d	-0.050099958
121	0xbd08d0a2	-0.033402093
122	0x3de7484a	0.11293085
123	0xbd834b23	-0.064108156
124	0xbcda3b0a	-0.02663948
125	0x3c86eb66	0.016469669
126	0xbdf16dd5	-0.11788527
127	0x3dba35e0	0.09092307
128	0x3da45217	0.0802347
129	0x3c74fc4e	0.014952732
130	0xbcc9da78	-0.024640307
131	0x3d34869d	0.04407369
132	0x3e2b34d4	0.16719371
133	0x3e1897c2	0.14901641
134	0x3e00be4b	0.12572591
135	0xbd86eced	-0.06588159
136	0xba98e700	-0.0011665523
137	0x3e01ab74	0.1266306
138	0x3cf9eeae	0.03050932
139	0xbbacdfc5	-0.005275699
140	0x3e28ce56	0.16484961
141	0x3e1e66d2	0.1546891
142	0xbdc053ac	-0.09390959
143	0xbd934df1	-0.071926005
144	0x3e2a24ad	0.16615553
145	0x3e2faa8e	0.17154905
146	0xbcefcf71	-0.02927372
147	0x3e095a41	0.13413335
148	0xbdcb9179	-0.09939856
149	0xbdd5f32a	-0.104467705
150	0x3d28f63e	0.04125046
151	0x3c94e12a	0.018173773
152	0xbda4c123	-0.080446504
153	0x3e280d3e	0.16411301
154	0x3c853fdc	0.016265802
155	0xbd34ea78	-0.04416892
156	0x3db38806	0.08766179
157	0x3c844b10	0.016149074
158	0xbd57a0be	-0.05264353
159	0x3d0c5b82	0.034266956
160	0xbc56c12d	-0.01310758
161	0xbde0adda	-0.109706596
162	0xbdc983de	-0.09839605
163	0x3dee1114	0.11624351
164	0xbd833ba4	-0.0640786
165	0xbda92a54	-0.082600266
166	0xbb34bfb2	-0.002758008
167	0xbdc9b806	-0.09849553
168	0xbd8911dd	-0.0669286
169	0xbd536899	-0.051613424
170	0x3da2e107	0.07953077
171	0xbd96c268	-0.07361299
172	0x3e1a5498	0.15071332
173	0xbd5c3fb8	-0.053771704
174	0x3e1b457d	0.15163226
175	0xbd8256be	-0.06364201
176	0xbd05e425	-0.03268828
177	0xbd28aa70	-0.041178167
178	0x3e045df3	0.12926464
179	0x3e03409e	0.12817618
180	0xbca6e920	-0.020374835
181	0xbdde75e8	-0.108623326
182	0x3e2847d8	0.16433656
183	0x3b857869	0.004073192
184	0x3aedb209	0.0018134724
185	0x3ce76b0b	0.028249284
186	0x3ddfc26c	0.10925755
187	0xbdd350da	-0.103181556
188	0xbc93134b	-0.017953536
189	0xbc381a80	-0.011236787
190	0x3ddd5dd9	0.10808916
191	0x3d298ee3	0.041396033
192	0x3d0bfae8	0.03417483
193	0x3dadebec	0.08492264
194	0x3dbf848c	0.09351453
195	0xbcf14878	-0.029453501
196	0xbdac9da8	-0.08428508
197	0x3cbe2be0	0.02321428
198	0x3c477f80	0.012176394
199	0x3c323070	0.010875806
200	0xbd754acc	-0.059885785
201	0xbb5def80	-0.0033864677
202	0xbd11bc30	-0.03557986
203	0x3d1fb434	0.038990214
204	0x3d519314	0.051165655
205	0x3d8f2834	0.0699009
206	0x3c902378	0.017595038
207	0xbd1646c8	-0.036688596
208	0xbdc4355e	-0.095804915
209	0xbde9c0d2	-0.11413731
210	0x3ce3d310	0.027810603
211	0x3dc72ba0	0.09725118
212	0xbb81e740	-0.0039643347
213	0x3d99d4c4	0.07511285
214	0xbc267090	-0.010158673
215	0xbc9eb190	-0.019371778
216	0xbc829768	-0.015941337
217	0x3df3c71e	0.11903213
218	0xbdd95802	-0.10612489
219	0xbc539c10	-0.012915626
220	0x3de8c968	0.1136654
221	0xbdc6b93e	-0.09703301
222	0x3a814400	0.0009862185
223	0x3d0b959c	0.034078225
224	0xbd472050	-0.0486148
225	0x3dcaea98	0.099080265
226	0xbd757ff4	-0.05993648
227	0xbdd44730	-0.103651404
228	0xbd51cc4c	-0.051220223
229	0xbde386e2	-0.11109711
230	0xbde6c5d0	-0.112681985
231	0x3db3c414	0.08777633
232	0x3d988662	0.074475065
233	0x3dca985a	0.0989234
234	0xbdc3f85c	-0.09568855
235	0xbd178a88	-0.036997348
236	0xbbe0bea0	-0.006858662
237	0xbd093e9c	-0.033506975
238	0xbde35a4c	-0.11101207
239	0xbd37f564	-0.044911757
240	0xbdb1bfaa	-0.08679135
241	0x3d6c6f5c	0.057723388
242	0xbd620958	-0.055184692
243	0x3cbea7a0	0.02327329
244	0xbdf441b2	-0.11926593
245	0x3dcfff02	0.10156061
246	0xbdbb02e2	-0.09131409
247	0x3cb7a4d8	0.02241747
248	0x3cb37720	0.02190739
249	0xbabe1300	-0.0014501512
250	0xbddfaa62	-0.1092117
251	0x3c79afb0	0.015239641
252	0xbd65cf94	-0.056106165
253	0x3cb846b0	0.022494644
254	0x3c671a80	0.014105439
255	0x3dad5f56	0.084654495

layers.2.bias f4 [32]
0	0xbd91ed8e	-0.07125388
1	0xbb908b83	-0.0044111623
2	0x3cd897e1	0.026439609
3	0xbd1b4404	-0.03790666
4	0x3d6a3129	0.05717579
5	0x3dcef284	0.1010485
6	0xbda7aae9	-0.081868954
7	0xbd941d32	-0.07232131
8	0xbe041140	-0.12897205
9	0x3b969f0a	0.0045965957
10	0xbbebf227	-0.0072004977
11	0xbdb8d3dd	-0.09024785
12	0xbdd1e2ca	-0.10248335
13	0xbd5366c0	-0.051611662
14	0xbd564708	-0.052313834
15	0x3ccc1ac2	0.024915103
16	0x3e196e46	0.14983472
17	0x3e258dd6	0.16167387
18	0xbdea4980	-0.114398
19	0xbdb06496	-0.08612935
20	0x3d96b2b6	0.07358305
21	0xbd7e9ddc	-0.062162265
22	0x3dce46b7	0.100720815
23	0x3d684233	0.056703757
24	0x3d5473a5	0.0518681
25	0xbde300fe	-0.110841736
26	0x3daec280	0.08533192
27	0x3d31ce97	0.04340991
28	0x3c8a3c14	0.01687435
29	0xbc2d4654	-0.01057585
30	0xbd8a23d4	-0.06745115
31	0xbcd49164	-0.025948234

layers.4.weight f4 [1, 32]
0	0xbcb605d0	-0.022219568
1	0xbc907014	-0.017631568
2	0x3dc1d74a	0.09464891
3	0x3e179c4d	0.14805718
4	0xbd0f5574	-0.034993604
5	0x3d0ae14b	0.033906262
6	0xbcea0ffe	-0.028572079
7	0x3de7196e	0.11284147
8	0xbe11ca87	-0.14237414
9	0xbdc355d3	-0.09537854
10	0x3e5e97fe	0.21737668
11	0xbe10bf21	-0.1413541
12	0xbdaa727a	-0.08322616
13	0x3c9b0f60	0.01892823
14	0xbdb78680	-0.08961201
15	0xbdcc64de	-0.099801764
16	0x3dee2345	0.11627821
17	0x3dbc9deb	0.09209808
18	0x3d15ce28	0.03657356
19	0xbdbbbfb4	-0.09167424
20	0x3d60e047	0.054901388
21	0x3e044fcf	0.1292107
22	0x3db43535	0.08799211
23	0x3e03cc4b	0.128709
24	0xbe01c083	-0.12671094
25	0x3e1806d3	0.14846353
26	0xbdb23afe	-0.08702658
27	0xbe025755	-0.12728627
28	0x3c9f6fdc	0.019462518
29	0xbe034ea9	-0.12822975
30	0xbe25e2eb	-0.16199844
31	0xbd32e4ba	-0.043675162
