DNN/TrainedModel.pt (torch, 10967 bytes, 5 tensors)

layers.0.weight f4 [46, 23]
00000000: 1ea6 47bc a2ac 943d 117e fd3d e4c8 88bd
00000010: 4151 42be 5b27 303d dbc7 aa3d d2ab 86be
00000020: ad54 27bd 4275 fd3d 32fe b0bd 7326 37be
00000030: 8a64 36bd 2a71 353e f281 06be 970b 47be
00000040: 60cf 563d cc97 2cbe 2f8c 5a3d ca22 b13c
00000050: 2dda 213e 7fcf 123e 76fd e1bc b09a 00bd
00000060: 6041 8c3c c78e ebbd 82cc f93d 0625 cb3d
00000070: b6cd b839 730c 8dbd f8ee 933d 07ea 163e
00000080: d2e9 3ebd 5204 a13d af76 5abd bd7f 4c3e
00000090: a6a7 00bd ccc6 00be ab77 25be dbb7 93be
000000a0: 1c14 f83d 4434 4bbe b828 5d3d 710b eabd
000000b0: 84bf cb3d 1bf6 2cbe a1fa 183e 3469 3abe
000000c0: 414a 53be b45e 3c3e d404 81bd ee58 693d
000000d0: 179f 8d3d fc72 b43d 663d 1fbe dc27 8c3e
000000e0: cd5d 393e 051d cf3c 8b57 98bc d78e 37be
000000f0: bbdb 403d 412e 76bd 0d47 7abd a1d7 17be
00000100: 6f4c 2bbc 898b 9ebe 521a 1b3c c95b 543d
00000110: a3a9 343d 0e05 48be 7e7a 0d3e 6f60 29be
00000120: bc3a e83c 22c4 2a3e 3e5d d53c 71a2 183e
00000130: 727a 8bbd 5265 7dbe e47c 133d 4146 57be
00000140: 444f 15be 64e3 83bd 767a 933d a209 b0bd
00000150: 3895 063e 9ecc 62be 66c8 733e 990b 7fbd
00000160: 0828 f73d 88c3 573e 684f 97bd 2abe c0bd
00000170: b420 e8bd c2d3 c73c 133a 14be 22c8 af3c
00000180: ec7c fc3d 2ca0 4cbe fc22 253e 8159 4e3d
00000190: 8721 263c 9ff1 333e 7a35 1cbe ef39 11be
000001a0: 8590 7abd e2a9 a4bd 4f39 783d 90f0 9cbd
000001b0: 5a10 9fba 6330 babd f12b 223e 5437 84bd
000001c0: 64d9 bb3d abb7 22be f0d7 743d 6d3c a13d
000001d0: b119 b7bd e816 f83d ddfe a2bd 774d 0ebd
000001e0: 3943 dc3d 8d24 7ebe 09f4 273c 2bb6 8cbe
000001f0: 51d8 743d 3135 9cbd f089 9bbc 20eb 36be
00000200: 301b 2e3e e31b fb3c e30d 823d 4b1a 5abd
00000210: fa88 b3be 6921 423e 866c 29bd ad4e efbd
00000220: 6e60 823d 1d8a 0c3e 78b9 03be d0ce a3bd
00000230: 21b6 adbd a150 3cbe 8491 29be 8023 15be
00000240: e50b dabd ee5f c33d c8c0 a73c 9c14 2dbe
00000250: e148 353e da41 ed3d ee9e 06be 5d5a f1bd
00000260: 904c 74bd fc02 03be 1a06 9a3d 6093 73bc
00000270: 7020 993c 1065 b83c 66e4 11be 806b efbc
00000280: d0b1 733c 6935 2b3d ed79 49be 786d 36be
00000290: 3b1d 59be daae 503e a39c 153e 98f1 4ebd
000002a0: 2961 3c3e 03b1 813d fd24 c83d f906 25be
000002b0: a3e9 92bc 1620 a7bd 87d8 a63d 41e1 fb3c
000002c0: ce02 5d3e aa1e f9bb c25d 3cbe ea4c 443d
000002d0: 6936 2d3c 958d 353e ad6c 76be be80 b6bd
000002e0: 2043 9cbd 4bbc 3a3e 5ad7 9a3d 47e3 d8bd
000002f0: 5435 03be 021d 463e 1a4f c23d 6a1d 803d
00000300: 486c 283d 200a 9ebd fe59 9ebd 929f 6fbe
00000310: 36fc b5be 3935 84bd 8038 193b 76d1 dd3c
00000320: 6891 00be 9522 aabc dfc0 8f3d aa2d d5bd
00000330: 5026 413d bebf ecbc 1c0e 08be 23c6 0f3d
00000340: 80f6 803c 92e6 58bd 30ff a1bd 00f0 cd3d
00000350: 1385 a7bd aca8 c6bb 642f 67be 510b 18be
00000360: 0e13 77be ad92 c33d a747 c5bd 4741 42be
00000370: fb6e d43c 928a 193e da4d 66be 7d27 22be
00000380: 94d5 abbd 7f73 16be d805 023e 24da dbbc
00000390: 1f90 b83d 88e8 a93d 7f08 80bd cea0 073e
000003a0: 3d6f 9abc 2e86 843d c602 cb3d 3585 543d
000003b0: 334b fc3d fbe0 b0bc 2e15 343d 130b 39be
000003c0: e542 fabc a9a7 4ebe 92cf 53be 0a0d 2f3e
000003d0: 752f a6bd b073 3a3e aad2 273e f691 e33d
000003e0: f8be 5f3d 3abf 07bd bd6d b73d 469b 7bbc
000003f0: 6c1d 213d 2e86 00be cddb 553e 4666 e33b
-0.0121856015 0.072594896 0.12377561 -0.06678942 -0.18976308 0.043006282 0.08338901 -0.26302963
-0.040852237 0.12375881 -0.08642234 -0.17885761 -0.044529475 0.1771895 -0.13135508 -0.19438015
0.052443862 -0.16854781 0.053356346 0.021623034 0.15805884 0.14336966 -0.02758668 -0.03139752
0.017121017 -0.11501842 0.1219721 0.09919171 0.0003524848 -0.0688714 0.07223314 0.14737712
-0.046609707 0.07862152 -0.05333584 0.19970603 -0.031409882 -0.12575835 -0.16158931 -0.28851208
0.121132106 -0.19844157 0.05399391 -0.114279635 0.09948638 -0.16890757 0.14939357 -0.18204194
-0.20633794 0.18395501 -0.06299749 0.056969576 0.069151096 0.08810994 -0.15550765 0.2737416
0.18102188 0.025282392 -0.018596431 -0.17925583 0.04708455 -0.060102705 -0.061102916 -0.1482835
-0.010455235 -0.30965832 0.0094667245 0.051845346 0.04410709 -0.19533178 0.13816258 -0.16540693
0.02834832 0.16676381 0.026045438 0.14905716 -0.06810464 -0.24745682 0.036007777 -0.21022893
-0.14581019 -0.06439856 0.07201092 -0.08595587 0.1314286 -0.22148368 0.23806915 -0.06226692
0.12068182 0.21070683 -0.073881924 -0.09411271 -0.113343626 0.024392966 -0.14475279 0.021457735
0.123285145 -0.19982976 0.16126627 0.050378326 0.0101398295 0.1757264 -0.15254775 -0.14182256
-0.06117298 -0.08040215 0.06060153 -0.07663071 -0.001213561 -0.0909126 0.15837075 -0.064558655
0.09172323 -0.15890376 0.059776247 0.078728534 -0.08940447 0.12113744 -0.079587676 -0.034741845
0.10755009 -0.2481863 0.010251054 -0.27482733 0.059776608 -0.07627333 -0.018986672 -0.1786313
0.17002559 0.030652946 0.06350305 -0.05324773 -0.35065442 0.18958057 -0.04136326 -0.11684928
0.06366049 0.13724561 -0.1286372 -0.07998431 -0.08482004 -0.18390132 -0.16559416 -0.14564323
-0.106468 0.095397815 0.020477667 -0.16902393 0.17703582 0.11584826 -0.13146564 -0.117848136
-0.05964333 -0.12794107 0.07520695 -0.01486668 0.018692225 0.022509128 -0.14247283 -0.029226065
0.014873937 0.041798983 -0.19675417 -0.17815197 -0.21202557 0.203792 0.14610533 -0.05052337
0.18396439 0.063325904 0.0977268 -0.16115941 -0.017933672 -0.08160417 0.08146768 0.030747058
0.21583101 -0.0076025324 -0.18395141 0.047924913 0.010572054 0.1772979 -0.24064894 -0.089112744
-0.076299906 0.1823589 0.07560606 -0.10590225 -0.12813312 0.19347003 0.09487744 0.0625561
0.04111889 -0.07716775 -0.077320084 -0.23400715 -0.35543984 -0.06455464 0.0023379624 0.027077418
-0.12555468 -0.020768443 0.07019209 -0.104091 0.04715568 -0.028900024 -0.13286632 0.035101067
0.01574254 -0.052954264 -0.07910001 0.10055542 -0.08179679 -0.0060625877 -0.22576672 -0.14848067
-0.24128363 0.095494606 -0.09632807 -0.18970214 0.025931826 0.14994267 -0.22490636 -0.15835376
-0.08390346 -0.14692496 0.12697542 -0.026837416 0.09011864 0.08296305 -0.062516205 0.13244936
-0.01885187 0.06470905 0.09912638 0.05188485 0.123190306 -0.021591654 0.04396551 -0.1807063
-0.030549476 -0.20181145 -0.2068465 0.17094818 -0.081145205 0.18208194 0.16388956 0.11111824
0.05462548 -0.033141352 0.08956478 -0.015356844 0.0393347 -0.12551185 0.20884629 0.006939682

layers.0.bias f4 [46]
00000000: 1147 02be 8959 e5bc e0ba 48be e42a 17be
00000010: b667 10be adf6 85bd 40f7 cb3c 8298 933c
00000020: a550 c83c 6382 f2bd be1d 2c3e 4966 4a3d
00000030: d5b1 2cbe 68cf 5b3d 0735 8dbc c8e5 d9bd
00000040: e22e dd3d 3694 023e 30c8 86bc 8d76 0a3e
00000050: a88a 293e 4f39 9b3e 360a 89bc 3fb9 65be
00000060: 7bb2 283e 955d 803e d2dd 22be c8dc ec3d
00000070: 4574 89bd acbf 7ebd 0d4f c63e 1fe6 893e
00000080: 6746 1dbe 14fd a03e a7bb 0b3e 07e6 89bd
00000090: 24d1 803e 1f96 dd3d 8036 7bbe ccfd b63c
000000a0: a02a 1b3e f83f 97bd c513 33be 4897 b53d
000000b0: 24b7 4b3e 47cf 353e
-0.12722422 -0.027996795 -0.19602537 -0.14762455 -0.14102063 -0.0654119 0.024898171 0.018017057
0.024452517 -0.118412755 0.1680822 0.049413953 -0.16864713 0.053664595 -0.0172372 -0.106395304
0.10799958 0.1275185 -0.016452879 0.13521786 0.165568 0.3031716 -0.016728502 -0.22433947
0.16474335 0.25071397 -0.1590493 0.11565548 -0.0671163 -0.06219451 0.38732186 0.2693338
-0.15358888 0.31443083 0.13645802 -0.06733327 0.25159562 0.10819649 -0.24532509 0.022337817
0.15152979 -0.07385248 -0.1748801 0.08866745 0.19894081 0.17754851

layers.2.weight f4 [23, 46]
00000000: 274e 8e3d be3d 11be bdce 093e c004 1f3b
00000010: 7ad0 943d ae15 df3d fa7d 8e3d 00fd c1bc
00000020: 48ee b93d b2ba 293c f0a5 8c3b 28ef 603d
00000030: 1a08 ca3d 272f d0bc 37a7 d6bd 5448 f73d
00000040: ee03 f13d fc9c 15be ce28 1d3b ef4b c9bc
00000050: 10bf 4b3d a8a6 ab3c efbb cbbd 3231 b43d
00000060: 3909 dabd 9a18 173d bc6d 0fbe 3e0c 9b3c
00000070: 1b71 bebd de0c e8bd 1ac8 a43d b344 bfbc
00000080: 9bd6 0bbd 529f 0fbd c4a1 15be 8b0a d23d
00000090: 4d57 0cbe b928 973d 2c4c e13d 68a1 a43b
000000a0: 7722 e43d 5cc4 cfbd 5864 96bd 495c 963d
000000b0: bd95 bebb 4b1c 8dbd aab0 fd3d dab2 753d
000000c0: 1221 b3bd b6b8 943d 26fe f93d 6805 603d
000000d0: 0a20 0b3e 5234 3bbd 049d 003d e8e1 203d
000000e0: 0b29 bfbc ac91 86bb 8dfc 0bbd 6599 56bb
000000f0: 6335 d7bd e416 f5bd fda7 d2bd 7803 d9bc
00000100: 4830 e23c 3cfe 1cbd bdcf d43c 3cf4 473d
00000110: ae84 6bbd 4de5 e3bd 39f2 7c3d 4f1f bdbd
00000120: f220 9b3d 5de7 34be 0706 00be e37a 83bd
00000130: c2b0 f0bc 4f28 f0bd 21df 483d d8b1 39bc
00000140: 809a 66bd cb9c c7bd 4e28 3ebe 8a45 79bd
00000150: abc5 053e 5be9 1abe 6d30 83bd 9f89 abbd
00000160: 00dc 3ebd 0755 55bd 79ce cd3d a1b6 72bd
00000170: 67ad 333c cbd7 b4bd f1b3 ad3b 7070 f93d
00000180: 1b80 86bd 0a73 9b3d 376a 94bd f737 d63d
00000190: 809a 5bbb 4b43 623d a930 1abe 52c1 e13d
000001a0: da39 39bd 6277 20bc 1752 973c 32c5 033e
000001b0: 1965 10be 9a92 703d bf2d 52bd f7c7 c73d
000001c0: 09d5 1fbc b209 4ebb be0d ba3d 3391 dcbd
000001d0: 05eb 03be e83e 2b3b d32f d0bd b217 40be
000001e0: 7dfd 11bd 582a 2e3d e831 403d 6eff ce3d
000001f0: eb36 833d cb7f 37bc 9dce 26bd 4714 01be
00000200: 6a26 e9bc de8d 10be 34ab 333d 55d8 26be
00000210: cbfb 15be d807 d73c bebc 983d c428 2e3e
00000220: ef60 ae3d 8ee4 fa3d ee72 3cbd d10d cf3d
00000230: 6a9a ce3c 1bda a13d e5c3 fbbd 73ff 903d
00000240: c0f7 e03d ff07 743d 1b19 6f3d b797 d3bd
00000250: 93a5 763c 5bd3 413e a8ec 08bd 753f 8b3d
00000260: 963b 043e 9505 e63c a62d e83d 3bdc 08bd
00000270: 350c 8a3d 7008 d93c 23be 293d a543 303e
00000280: 5e9e e53c 7abd 463b 62ac e23d fd99 fd3d
00000290: d553 733c a107 413d 5b9b 733d 10ac f03c
000002a0: 1a65 3e3e 75d1 bd3d ed35 e03d d860 203e
000002b0: cda5 af3d 6f69 203e b14d 1a3e a9cc 2a3d
000002c0: bdb3 48bd bcb7 263d b5fd 283d 6406 223d
000002d0: 877b e5bd a824 e43d 06b2 293d 0743 213e
000002e0: 9d15 27be dc1c 6fbd 3caf 9ebd d2f6 d7ba
000002f0: 5240 2dbe 07fc cb3d 7e1f 3dbd 5219 24be
00000300: 5542 3dbb e5f6 ddbd 0400 73bc d2c1 733c
00000310: 8654 63bd 6963 c1bd c1c0 31bd d60e bd3d
00000320: daba c13b fcc5 b83c 1b96 a1bd 978d 873d
00000330: 4225 f63c 12e5 39be 67a2 96bd 8de3 83bd
00000340: 216e c43b be2a b0bc 1929 b83b aeb1 943d
00000350: c0af 78bd 50c7 323c 71f9 99bd f3f9 14be
00000360: 989b 97bd a88d 20bd 52a4 edbd 32e6 b53d
00000370: 841e b03c 0cd9 a1bd aab4 df3d 36aa 83bd
00000380: 6ee3 2c3d 5a93 cb3d 87d1 64bc f962 423c
00000390: 0f3e 203d 195b 18bd 8f2e 903d 298d 43bc
000003a0: 9549 1f3d ac03 d43d 21ac 29bd 3223 6c3c
000003b0: 5c1e 143e 30df 4cbc 54ef d4bd 9978 02be
000003c0: e94d 543d e3b2 c5bd 6fa4 9abd 9211 303d
000003d0: 08b4 06be 57f3 fe3c 073d ae3d 563b 353d
000003e0: c8df 71bd d25a c33d d51d 1f3d 8518 fbbd
000003f0: 1b40 d7bc e1f7 c9bd e477 6c3d ad4d 293d
0.069485 -0.14183709 0.1345777 0.0024264306 0.07266326 0.10892807 0.06957622 -0.02368021
0.09078652 0.010359453 0.004292242 0.054915577 0.098648265 -0.025413109 -0.104811125 0.12074342
0.11768328 -0.14610666 0.002398062 -0.02457234 0.04974276 0.020953491 -0.09947955 0.08798446
-0.1064629 0.036888696 -0.14006704 0.018926736 -0.09298917 -0.11330579 0.08045979 -0.023348188
-0.03414021 -0.03506405 -0.1461249 0.10255917 -0.13705178 0.07380814 0.11000857 0.005024124
0.11139386 -0.101448745 -0.07343358 0.07341821 -0.00581619 -0.06890162 0.123872116 0.05998502
-0.08746542 0.07261793 0.12206678 0.054692656 0.1358644 -0.045704193 0.03139974 0.03927794
-0.023335 -0.004106721 -0.034176398 -0.003274524 -0.105082296 -0.11967257 -0.102859475 -0.026490912
0.027610913 -0.038328394 0.025977964 0.048816904 -0.05749958 -0.1112772 0.06175444 -0.09234487
0.07574643 -0.17666383 -0.12502299 -0.06419923 -0.02938116 -0.11726438 0.049040917 -0.011333905
-0.056299686 -0.09746703 -0.18570063 -0.060857333 0.13063686 -0.1512808 -0.06405721 -0.083758585
-0.046596527 -0.05208304 0.10049147 -0.0592562 0.010966635 -0.08830222 0.0053009917 0.12179649
-0.06567403 0.07590301 -0.072468214 0.10459893 -0.0033508837 0.055239957 -0.15057625 0.11023201
-0.045221187 -0.009794088 0.01847176 0.12868193 -0.14101066 0.05873356 -0.051313158 0.09754937
-0.009755381 -0.0031438884 0.09084652 -0.10769882 -0.12882622 0.0026130024 -0.10165372 -0.18759039
-0.035642136 0.04252085 0.046922594 0.10107313 0.06406959 -0.011199902 -0.040724386 -0.12605391
-0.0284607 -0.14116618 0.043864444 -0.16293462 -0.14646833 0.026248857 0.07457875 0.17007738
0.08514582 0.122506246 -0.046008043 0.10110057 0.025220115 0.079029284 -0.12293223 0.07079973
0.109847546 0.05957794 0.05837355 -0.10331672 0.015054124 0.18928282 -0.033428818 0.06799213
0.12913355 0.028078834 0.11336832 -0.033413153 0.067406096 0.026493281 0.041441094 0.17213304
0.028029617 0.003032534 0.11068036 0.123828866 0.01485153 0.047126416 0.05947433 0.02937892
0.18593255 0.092684664 0.109477855 0.15661943 0.08576546 0.1566522 0.150687 0.041699085
-0.048999537 0.040702567 0.04125758 0.039556876 -0.112052016 0.11139804 0.041429542 0.15748225
-0.16316839 -0.05837713 -0.07748267 -0.0016476756 -0.16919068 0.0996018 -0.04617261 -0.16025284
-0.0028878648 -0.10838107 -0.014831547 0.014877753 -0.05550053 -0.09442789 -0.043396715 0.09231345
0.005912167 0.022555344 -0.078899585 0.06618803 0.030047063 -0.1815379 -0.073551945 -0.06439886
0.0059945737 -0.021504756 0.0056201336 0.07260452 -0.060714483 0.010911778 -0.0751828 -0.14548473
-0.07402724 -0.039197594 -0.11603607 0.08881797 0.021498926 -0.079027265 0.10923131 -0.064289495
0.04220908 0.099402145 -0.013965971 0.011864417 0.039121684 -0.037196252 0.0704013 -0.011935511
0.038888533 0.10352263 -0.04142392 0.014412688 0.14464706 -0.012504384 -0.10397211 -0.12741317
0.051832113 -0.096532606 -0.075508945 0.042985506 -0.13154614 0.031121893 0.08507734 0.04424604
-0.059051305 0.09538807 0.03884681 -0.12260536 -0.026275685 -0.09861732 0.057731524 0.041333843

layers.2.bias f4 [23]
00000000: 7542 98bd df51 92bc 7df8 91bd 47d1 523e
00000010: e0de 183d 4890 943d cb10 c23c 9912 113e
00000020: 3edf 7a3d 56b0 9c3e 2d97 a43d 23d1 8bbd
00000030: 89a5 323d ca1c 5a3e edf9 e93d fccc 20be
00000040: facb 973e 4fb2 0a3e 0a15 533e 6158 8c3e
00000050: efb2 733e 8b96 f2bd c59f 7f3e
-0.07434551 -0.017861305 -0.071274735 0.20587645 0.037321925 0.07254082 0.023689648 0.1416725
0.061248057 0.30603284 0.08036647 -0.06826999 0.043614898 0.21300045 0.11424623 -0.15703195
0.2964781 0.13544582 0.20613495 0.27411178 0.23798726 -0.1184512 0.24963291

layers.4.weight f4 [1, 23]
00000000: 94d5 45be 4253 27be b080 4abe 4c20 173e
00000010: 07b9 e9bd ce83 aa3c 998f a63a 0713 9d3d
00000020: c822 293b 7f06 693e f143 86bc f890 2cbe
00000030: 227b 143d cf8e 723d fc0e 413d fde5 513c
00000040: 9874 053e 9aaa 8b3d d418 263e e646 433e
00000050: 03a4 0e3e f48b 46be 0a18 733e
-0.19319755 -0.16340354 -0.19775653 0.14758414 -0.11412244 0.020814802 0.001270759 0.07669645
0.0025808085 0.22756384 -0.016389819 -0.16852176 0.03625024 0.059218224 0.04713343 0.012811181
0.13032758 0.06819649 0.16220409 0.19070014 0.13929753 -0.19389325 0.23739639
