DNN/TrainedModel.pt (torch, 10967 bytes, 5 tensors)

layers.0.weight f4 [46, 23]
00000000: 6675 933d c5cd 5fbe f540 6d3d a826 6abd
00000010: b912 e1bd 922f 193e da7c 7fbd 0a0f 8a3c
00000020: 475e a93c 0b8c 6ebd dee7 6fbe 6583 0d3e
00000030: ab37 f03d 8416 b83d 0096 0fbd f90c b2bc
00000040: 5cc7 f7bc cfc5 33be f9da 2f3e 0bce ac3d
00000050: 6a15 b53d 3086 6ebe 8475 c03d 32ca cc3c
00000060: 7856 27be 936e 903d 9d80 e63c 9ec4 4fbc
00000070: 532b 883c 4d0f f3bd 170f 97bc 23b5 a2bd
00000080: 2ae6 4ebe 0a94 b0bd a3da bbbd 2c50 c83d
00000090: 8223 3abe 12ff 1c3e 85fb c93d 0f5b 293e
000000a0: 44b6 043c 7236 163e 3aad 20be 2ba2 26bd
000000b0: 8ca3 05be 1967 9abc 3325 253e 7ca5 103e
000000c0: 93c3 95bd 18f2 45be 13b9 323d 21f8 7abe
000000d0: 3ede 44be a541 163e d982 17be 7df5 663d
000000e0: b644 c7bd b84a 00be ce98 063d 9192 88bd
000000f0: a768 363e 341c 37bd d9e0 853c c128 83bd
00000100: e19c d8bd 2b79 4fbe 932c b83d f153 df3c
00000110: 3ec5 983d a16c 1e3e 0699 493e 6a49 e0bd
00000120: 4da6 5f3e 482b 85bd 6300 423e bf35 84bd
00000130: ff26 0a3e f3a7 4abe 2a05 ce3c 73c7 0fbe
00000140: 5d52 20be 38d6 29be caf8 d7bd 6be8 1c3e
00000150: 5199 71bc 0f92 e8bc 9589 493e 1326 37be
00000160: 86b6 50bc 2001 333d bfcc c53d 6989 2fbe
00000170: 21ab 663e 8dff 3f3e 8ea5 1c3d 7075 1dbe
00000180: ed76 8dbe 6521 27be 968a 20be f4b8 7f3d
00000190: fe21 61be 85ef 753d 98e5 e9bd ba1f a3bd
000001a0: 2095 16bd 2dca aa3d 14f7 5f3d ad6c 74be
000001b0: d205 013d af1e 0d3d 1a3c 2dbb 8a14 433e
000001c0: 6b2b 43bc 8524 51be bfc8 103e 4777 71bd
000001d0: c31f 18be d0f9 16be 7b97 f23d add0 913e
000001e0: e147 54be 0a92 203e c363 8bbd 507b 07be
000001f0: 3919 753e b2fd a9bc 52bd 69be d576 afbd
00000200: d658 6abd 593f b83d 2417 cebd 7068 0ebe
00000210: ff66 c6bd 1a2d 10bd 19bd f13d 5c8e 723e
00000220: 34e6 6dbe 8b6f 923d 28b0 643d f787 67bd
00000230: 0043 d1bd ab00 45be 9a3d d33c 44e2 2abd
00000240: c629 b83d fcd5 843d 4a80 25be 7810 f6bd
00000250: 29f6 18bc 6a1d 003e ca5c a9bc 6eb6 ebbd
00000260: 82a8 413e 3218 49be 4efb 9b3c fcc0 d5bd
00000270: b362 34be 8108 9bbd 1694 21be ed14 b63c
00000280: d2b4 3cbe e015 ecbb 35c0 3fbe b9ac e8bd
00000290: 64f4 1c3d 55ab 50be b858 edbd 3ec4 f83d
000002a0: 52da 9ebd b72f d9bd 7b1f c0bd 3e94 2cbe
000002b0: 28e3 a9bd 35ad 433e 409e 75bd 22fd 0abe
000002c0: 2bee 153e d07d 3ebe ea4a a6bd 0431 42bd
000002d0: 53fd b8bd 2c5c 11be 580e f0bd 692a c6bd
000002e0: 3d5f 853e dc1f e03d 415a a2bd 4106 adbb
000002f0: 684d fa3d acc3 2dbe d9d8 47be 2ff4 093e
00000300: ebc8 19bd 1c35 68be 7236 b2bd 5bbd 5abe
00000310: de8b 38be 4879 14be 6dca 233e 455a 4d3e
00000320: bead 17be f361 42be a10f b03c 396d 583e
00000330: 5e16 82be 213c 65bd 0df2 683d f30e 8e3d
00000340: 02bd 053e a880 663e 8101 723e 1241 72be
00000350: 9cfd 333e 31f5 e1bc 738f 0bbe 8664 8ebe
00000360: 78de 503d cc61 a33c 480b 533e 4b65 c33d
00000370: 4564 4e3c c875 6abe 392c 7e3e 18c0 4ebe
00000380: ee0e b8bd ea91 a9bd 24c5 e7bd 308c 13be
00000390: a6bc f8bd d67c 4dbe 7f6b ae3d cf6e b43d
000003a0: e585 a4bd 8c00 5abd d9d8 413c 5d84 153d
000003b0: 3a21 2a3e 27d6 34be da3a 31be 279e 033c
000003c0: 6079 0abd fcef f0bd ba88 43be 00d3 153e
000003d0: 12e1 5cbd 8995 cdbd 6ec5 d2bd 5abc 1c3a
000003e0: 1bb0 9e3d e3f9 83be 20e3 283e 4e2b 8b3c
000003f0: 6369 a8bd b17a 24be f90d ccbd d8f8 3d3e
0.07200126 -0.21855839 0.057923276 -0.05716577 -0.10989899 0.14959553 -0.062374927 0.016852874
0.020674838 -0.058239024 -0.23428294 0.13819654 0.11729368 0.089886695 -0.03505516 -0.021734701
-0.03024643 -0.17555927 0.17173375 0.08437737 0.08841975 -0.23293376 0.09397414 0.024998758
-0.16341579 0.0705234 0.0281375 -0.0126811545 0.016622221 -0.11868153 -0.018439813 -0.07944705
-0.20204988 -0.08621986 -0.09172561 0.097809166 -0.18177608 0.15331677 0.09862427 0.16538642
0.008100096 0.14669207 -0.1569108 -0.040682 -0.1305067 -0.018847989 0.16127472 0.14125627
-0.073126934 -0.19330633 0.04363353 -0.24508716 -0.19225404 0.14673479 -0.14796008 0.05638646
-0.097299024 -0.12528503 0.03286057 -0.0666858 0.17813359 -0.04470463 0.016342567 -0.064042576
-0.10576797 -0.20261066 0.08992877 0.027261706 0.07459496 0.15471126 0.1968728 -0.109515026
0.21840782 -0.06502396 0.1894546 -0.06455564 0.13491438 -0.1979063 0.025148947 -0.14040928
-0.15656419 -0.16585624 -0.105454996 0.15323035 -0.014746026 -0.028389959 0.1968139 -0.17885618
-0.0127388295 0.043702245 0.09658193 -0.17142262 0.22526218 0.18749829 0.038243823 -0.1537683
-0.27629796 -0.16321333 -0.15677866 0.062432244 -0.21985623 0.060042877 -0.11420745 -0.07965036
-0.03676331 0.08339343 0.05467899 -0.23869582 0.03149969 0.03445309 -0.0026433528 0.19050804
-0.011912207 -0.20424087 0.14139079 -0.058951642 -0.14855866 -0.14743733 0.11845299 0.2847952
-0.20730545 0.1568071 -0.068061374 -0.13230634 0.23935403 -0.020750854 -0.22826126 -0.08567587
-0.057213627 0.089964576 -0.100630075 -0.13907027 -0.09687614 -0.035199262 0.11803646 0.23687118
-0.23232347 0.071501814 0.05583206 -0.05652615 -0.10217857 -0.19238536 0.02578621 -0.04171969
0.08992343 0.06486127 -0.1616222 -0.1201486 -0.009336033 0.1251122 -0.020674128 -0.11509405
0.18911937 -0.19638136 0.01904073 -0.104371995 -0.17615776 -0.07569981 -0.15779147 0.022226775
-0.18428352 -0.007204756 -0.18725665 -0.11361069 0.038319007 -0.20377858 -0.115891874 0.12146805
-0.07756485 -0.10604804 -0.093810044 -0.16853425 -0.0829528 0.19109042 -0.059965372 -0.13573125
0.14641635 -0.18602681 -0.081197575 -0.047410026 -0.09032693 -0.14195317 -0.11721486 -0.09676058
0.26049224 0.10943577 -0.07927371 -0.0052802865 0.12221795 -0.16969174 -0.19516315 0.13472055
-0.037545126 -0.2267651 -0.08701791 -0.21361296 -0.18022105 -0.1449939 0.15995188 0.20053966
-0.14812371 -0.18982677 0.021491827 0.21135415 -0.2540769 -0.055965547 0.056871463 0.06936445
0.13060382 0.22510016 0.23633386 -0.23657635 0.17577213 -0.027582737 -0.1362894 -0.27811068
0.050993413 0.019944094 0.20609772 0.095408045 0.012597148 -0.22896492 0.24821557 -0.20190465
-0.089872226 -0.08279784 -0.113168985 -0.14408946 -0.12145357 -0.20067152 0.08516597 0.088101976
-0.08033351 -0.053223178 0.011831486 0.036503185 0.16614237 -0.17659818 -0.17307606 0.008033312
-0.03380716 -0.117645234 -0.19095126 0.14631271 -0.05392558 -0.10038287 -0.10291563 0.00059789943
0.07748433 -0.25776586 0.16492891 0.016988423 -0.08223226 -0.16062428 -0.099636026 0.18551958

layers.0.bias f4 [46]
00000000: cfbb 0e3e 2d76 59be cda5 593d 5bd2 25be
00000010: 40c3 093d 95bd 903d a7e7 fcbc 742c eabd
00000020: a615 5f3e e164 26be e11e 0e3e 59b7 22be
00000030: 4862 25bd eefd 25be 9d5f 873e 25d4 22be
00000040: ca00 e03c abdd 2a3e b726 3bbd 27fe 4c3d
00000050: ed5e 4d3d 9a11 bebb ab12 233e 880a 493e
00000060: 4437 843e e0c3 5f3d 50f9 383e 5234 70b9
00000070: 1420 ee3d 7b71 313e 553a 22be cf2c 95bc
00000080: 20d9 28bd 1e0b 893e b1ce 073e 653e 213d
00000090: 00e6 94bd a5e2 40be f5e3 da3c 1355 b3bd
000000a0: fb55 2f3e 2c60 5abe 2899 143e b7b7 afbd
000000b0: 6bd8 ecbd de4d b8bc
0.13938831 -0.21236487 0.053136636 -0.16193525 0.03363347 0.0706741 -0.03087218 -0.1143426
0.21785602 -0.1624942 0.13878967 -0.15890254 -0.04037693 -0.16210148 0.26440135 -0.15901239
0.027344126 0.16686122 -0.04569122 0.050047066 0.050139356 -0.005800438 0.1592509 0.19632924
0.25823414 0.05463016 0.18063855 -0.00022907674 0.11627212 0.17328446 -0.15842564 -0.018209843
-0.04122269 0.26766294 0.1326244 0.039366145 -0.072704315 -0.18836458 0.026720027 -0.08756461
0.17122643 -0.21325749 0.1451155 -0.08579963 -0.11564716 -0.022498067

layers.2.weight f4 [23, 46]
00000000: 6653 473d 2c88 b3bd 9a99 d13d 7682 b1bd
00000010: a578 09be 9ae7 073e b87f 8ebc e0ee 75bd
00000020: 27a5 0cbe 42d4 cabd b1f1 0cbe d02f 6abd
00000030: 52a0 823c 8fb5 263d 4f65 34bd 11a4 7f3d
00000040: 571e 00be 295a 563d 4ee0 14be 4880 cd3c
00000050: 2d16 fc3d 48cf 0d3e f021 c9bd e214 77bc
00000060: 6ef4 abbd 7a40 cebd a7e8 d5bd a231 76bd
00000070: 21f0 0d3d 601b 913d 35e3 b4bb f2ef b33d
00000080: 805c a93d 2e94 95bd e061 e93d 00ec ac3c
00000090: cc6c 91bd ffa9 85bd 0894 b43d b86c 7d3d
000000a0: f919 403d b0ec 053e 00c3 b23d d945 8dbc
000000b0: e42d f7bc 8af7 bcbd 5ea2 043d 0eea b83d
000000c0: 7635 c1bd fa8e 07be 3805 9bbc 68cb a43d
000000d0: 80e6 cbbc 5a12 35bd 1893 ad3c 066d c53d
000000e0: 20fe 603d ff62 793d 5e41 f9bd 81b5 473d
000000f0: 6979 92bd 777a febd dd1a 28be eded 30be
00000100: 0437 04be a608 96bd 0312 41bd 8c84 18bd
00000110: bac2 d83c 78fb fdbc 6e5e b4bd 4476 cbbd
00000120: 28ca c53d 72eb 0fbe 6872 e4bb 1053 e23d
00000130: 034d 25be bce2 d23d 8567 c73d c08c f0bd
00000140: 7020 693c d2db 1abe f865 ccbd e029 143c
00000150: c218 143d 2cfa 75bd 2fd2 81bd 4097 fabb
00000160: 309c 71bc a657 2ebe 665b 073e ccae 913d
00000170: 51c2 013e 3453 0c3e ce41 3fbd 381d fd3d
00000180: 070a 07be 8115 023b 92eb 9abd 1a85 bf3d
00000190: acd0 413d 39ec 88bd a8cb 84bc 9acb afbd
000001a0: 9057 f13d 0d09 9ebc b607 a1bd 35fb 5ebc
000001b0: 4429 a13d 06d5 673d a61d 933d e27d c7bd
000001c0: 46e9 f3bc f15b 7b3c ca4a 1c3e c1a3 303e
000001d0: cd17 f33b 1cfa 193e 1f51 383d f59c b43c
000001e0: 8c22 173d 9cae fd3d a31d 19bd 7f91 dcbd
000001f0: c1f4 ce3d 8bc5 863e 05ae a73d c39b a9bd
00000200: e27d b23d e411 82bd ef54 7bbd 0768 97bd
00000210: 152c 72bd 457f b13d 65e5 34bd d20b eb3d
00000220: 20f4 d63c 2cf1 873d a55b 16bd 1a56 c2bd
00000230: f4de 1dbd 3264 263d 620b 1cbe 8a18 36bd
00000240: bcee ec3b d7b1 f1bd 0af0 efbd 397d 05be
00000250: 56af 013e 162d e53b ac0c 39bd 14f4 5abd
00000260: f80f 573d c431 e23b 786f 1dbd ada7 f83c
00000270: 1170 e03d d6a6 51bd 771a c1bd f504 0a3e
00000280: cb51 ec3d 5b38 0abe ade5 013d 61ba 5abd
00000290: ae46 293c ed8e 19be e033 9abd 4015 49bb
000002a0: 8c64 f8bc 3f59 9dbd f71c 623d 64da 4f3d
000002b0: c05d 3f3d 2817 873d 24fc 77bd 8ce9 9cbd
000002c0: a29d e33d f64c 5abd d6bf 58bd 7094 9e3d
000002d0: a273 90bd 6372 0dbe e075 66bc 6db4 cb3d
000002e0: d489 aabc 1626 a2bd 8eca 51bd 30aa b5bc
000002f0: 57e1 c53d 477f 2c3e e2db d4bd b0dc c13d
00000300: 45b8 5c3e 4bfe 55be cf4b 0f3e 06c4 febd
00000310: 191f d43d 7505 a83d 97ea ea3d 075b 913d
00000320: b985 8e3d 135f 1d3c 7cc0 073e 2351 e13d
00000330: 4791 463e c275 683d ced2 e8bd 6aef 723d
00000340: a3cc 34bd 33b5 243e 2b77 a93d 387b 95bd
00000350: 63c8 c93d cf23 d0bd ac4e 003e d86b 113e
00000360: 2ccc 023e 05f4 dc3d 686b 293d f864 59bd
00000370: 0288 6ebd 6513 c93d a4ac 153e 90b3 01bd
00000380: 714a 023e e160 823d d2b1 a43d af24 b2bd
00000390: d0f9 97bc 33ee 0b3e 2cf0 b8bd 8275 c93d
000003a0: 52eb 53bd 8e0c 3c3d 70d3 123d 7c81 833d
000003b0: 7a07 183e 103f 5fbd bb46 ac3e d2ca 49be
000003c0: 382d b4bd 7ecd 5c3d f9b6 093e a133 823e
000003d0: 2d5e dc3c 91d1 003e a299 9f3d 7d06 01bd
000003e0: f0ca 223d f1fe d13d d4aa 4e3e f49e 8a3d
000003f0: 705a ec3b e286 a43c fd70 6fbd 581d 003e
0.04866352 -0.08766207 0.10234375 -0.086674616 -0.13424928 0.13271943 -0.017394885 -0.060042262
-0.13734876 -0.09903766 -0.13764073 -0.057174504 0.015945587 0.04070049 -0.044041928 0.062412325
-0.12511574 0.052332077 -0.1453869 0.025085583 0.12308917 0.13848603 -0.09820926 -0.015080662
-0.08396231 -0.10070892 -0.104447655 -0.060105927 0.034652833 0.070852995 -0.0055202493 0.08786
0.08269596 -0.07303654 0.11395621 0.021108627 -0.071008295 -0.06526565 0.08817297 0.06187126
0.04689977 0.1307857 0.087285995 -0.01724522 -0.03017325 -0.09226902 0.032381408 0.090290174
-0.09434025 -0.13238135 -0.018923387 0.08046609 -0.024890184 -0.044206955 0.021188304 0.09639935
0.054929852 0.060885426 -0.12170671 0.04875708 -0.071520634 -0.12425702 -0.16416498 -0.17278261
-0.12911612 -0.07325868 -0.047136318 -0.03723578 0.02646004 -0.031003699 -0.088070735 -0.09934667
0.09657699 -0.14054659 -0.006971646 0.11050999 -0.16142659 0.102971524 0.09736542 -0.11745596
0.014228925 -0.15122917 -0.099803865 0.009043187 0.036156423 -0.060053036 -0.063389175 -0.007647425
-0.014746711 -0.17025623 0.1321846 0.07113418 0.12671782 0.13703614 -0.046693616 0.12359089
-0.13187419 0.0019849243 -0.07564463 0.09351559 0.047318146 -0.06685681 -0.016210392 -0.08583756
0.11784279 -0.019291425 -0.07862799 -0.013609697 0.07869199 0.05659964 0.07183389 -0.09740807
-0.02977432 0.015341745 0.15262905 0.17249967 0.0074186088 0.15036815 0.044999238 0.0220475
0.03689818 0.1238682 -0.03738178 -0.10769939 0.10105277 0.26322588 0.081874885 -0.08281662
0.087154165 -0.063510686 -0.061360296 -0.073928885 -0.05912407 0.08666853 -0.04416408 0.11476864
0.026239455 0.06637797 -0.036708493 -0.09489079 -0.038542703 0.040622897 -0.15238717 -0.044456996
0.007230608 -0.118014984 -0.11715706 -0.1303605 0.12664542 0.0069939 -0.0451781 -0.053455427
0.052505463 0.006902905 -0.038436383 0.030353392 0.10958875 -0.051184498 -0.09428876 0.13478453
0.11539038 -0.1349806 0.031713177 -0.0534004 0.010331793 -0.14995928 -0.075294256 -0.0030682832
-0.030321382 -0.07683038 0.055203404 0.050745383 0.046720266 0.065962136 -0.060543194 -0.07661733
0.111140504 -0.053296052 -0.052917324 0.07743156 -0.07053305 -0.13813166 -0.0140661895 0.09946523
-0.020817675 -0.079174206 -0.05121856 -0.022175878 0.09662121 0.16845427 -0.10393502 0.09465921
0.21554668 -0.20897786 0.13993762 -0.12439732 0.10357494 0.08204166 0.11470526 0.0709744
0.06959099 0.009605187 0.1325702 0.11001804 0.19391356 0.056752928 -0.11368333 0.059310354
-0.04414047 0.16084747 0.082746826 -0.07298893 0.09852674 -0.1016308 0.12530011 0.14201295
0.12773198 0.107887305 0.041362196 -0.053074807 -0.058235176 0.09818152 0.14616638 -0.031665385
0.1272371 0.063661344 0.08041729 -0.08698403 -0.018551737 0.13665085 -0.09030184 0.09836866
-0.05173809 0.04591041 0.035846174 0.064211816 0.14846602 -0.0545035 0.33647713 -0.19706276
-0.08797687 0.05390691 0.13448705 0.25430015 0.026900375 0.12579943 0.07792975 -0.03150033
0.039744318 0.10253704 0.20182353 0.06768599 0.0072129294 0.020083848 -0.058457363 0.12511194

layers.2.bias f4 [23]
00000000: ee4f 1dbd 5187 f7bc c7fa c23d a5ad a7bd
00000010: e4e4 333e 27b2 2f3e 9fea 9bbd 18b8 6d3e
00000020: 2dd9 1ebe 8857 2b3e e986 bfbd 597e 983c
00000030: 4562 25bd 620d 53bd 5dd8 5cbd e485 ac3d
00000040: 12fe 863d 7f77 393d 783d 50be dd8f a53d
00000050: 91bb 85bb 5ff0 343d 796b fc3d
-0.038406305 -0.030215891 0.09520488 -0.08187417 0.17567784 0.17157803 -0.0761311 0.23214757
-0.15512533 0.1673261 -0.09351904 0.018614935 -0.04037692 -0.051526435 -0.053917278 0.08423975
0.06591429 0.045279976 -0.20335948 0.0808408 -0.0040811975 0.04417455 0.12325186

layers.4.weight f4 [1, 23]
00000000: d931 1dbe 0cc1 053e 6b93 4c3e e147 c73b
00000010: ef17 293e 43a2 ee3d 01c7 c83d 72de 143e
00000020: 3308 b9bd 680b 763d 8587 503e 71b9 b3bc
00000030: bdda a8bc 183b ffbc c2f2 92bd c085 393e
00000040: e859 c43a 56e2 67bd a635 a6bd 87f5 14bd
00000050: 9f04 d43d 84b6 a0bd 833e 143e
-0.15351047 0.13061923 0.1997811 0.0060815667 0.16513036 0.11652043 0.09803582 0.14537981
-0.09034767 0.06006947 0.20364197 -0.021939011 -0.020612115 -0.031156108 -0.07175209 0.18117428
0.0014980407 -0.056612335 -0.081157014 -0.036366966 0.10352444 -0.07847312 0.14476971
